experiments/2026-01-14_19-59-28_network_small_attention_mlp/best_model.pt (torch, 123253 bytes, 23 tensors)

attention.q_proj.weight f4 [32, 1]
00000000: b090 1cbf 6c9b 063f 2c37 503f e49a 993e
00000010: 50f8 b73e a878 213f 7427 e83e 9411 62bd
00000020: 209a e1be 6aec 21bf 38c0 41bd 0c78 e23e
00000030: 4812 99be fa0c 2cbf 622c 733f 06f9 33bf
00000040: e4f0 a9be f49b fb3e 481f efbe f2f0 7c3f
00000050: 2627 28bf 3432 623f 682a 37be 60f3 143f
00000060: 7cf2 0cbf e04d 7bbf 0242 363f 3c8e c8be
00000070: 487f 2abe 8efa 03bf 2420 433f 8075 533e
-0.61158276 0.52580905 0.81334186 0.30000985 0.35931635 0.6307473 0.453426 -0.055192545
-0.440629 -0.63251364 -0.047302455 0.44232213 -0.2989676 -0.672073 0.949896 -0.70301855
-0.33191597 0.4914242 -0.46703553 0.98805153 -0.65684736 0.88357854 -0.1788727 0.5818386
-0.550575 -0.981657 0.7119447 -0.39171016 -0.16650116 -0.5155419 0.7622092 0.20650291

attention.q_proj.bias f4 [32]
00000000: 7412 703d c0e7 85be 5c58 7dbe b039 be3e
00000010: e0f3 6b3f 3699 6e3f 3c30 7f3f 686d 2abf
00000020: b485 e2bd ec84 64bf d09b 53be 88ef c63e
00000030: 4063 05bf f426 64bd 108b 86be 12fd 6bbf
00000040: bc46 4a3f 00dc 42be c8dc 323e 0421 463f
00000050: 80e1 dc3e 9441 f8be a47c d5bd 7a5a 723f
00000060: 760a 4dbf d094 f83e d45f 71bf 4cb4 b83e
00000070: 36a4 203f f860 4ebe 580c 35be e8bb 213f
0.05861135 -0.26153374 -0.24740738 0.37153387 0.92169 0.9320253 0.99682975 -0.6657319
-0.11060658 -0.8926532 -0.20664907 0.38854623 -0.5210457 -0.05570121 -0.2627797 -0.9218303
0.7901418 -0.19029236 0.17467034 0.7739413 0.43140793 -0.48487532 -0.10424164 0.94669306
-0.8009409 0.48551035 -0.9428685 0.36075056 0.62750566 -0.20154178 -0.1768049 0.6317735

attention.k_proj.weight f4 [32, 1]
00000000: 5066 e9be c855 1abf a8b2 45be b42f 70bf
00000010: 144e 5f3e 66f2 46bf d08a 22bf 642f 7ebe
00000020: 9425 7a3f 648f 42bf 34e8 743f dc15 4abf
00000030: 2858 a3bd 38ff 87bd c4be 9cbe 3ab4 0bbf
00000040: f81a 6cbf e058 8bbe eebc 0b3f 0aab 41bf
00000050: dcc5 c43e 54b5 883e febe 653f b62e 2c3f
00000060: b837 a3bd 8c82 c3be f89a 4b3f 840c d83e
00000070: 5021 36bf e825 733f e8a7 c03d 9804 73bf
-0.4558587 -0.6028714 -0.19306433 -0.9382279 0.21807128 -0.7771362 -0.6349306 -0.24822766
0.9771359 -0.76000047 0.95666814 -0.78939605 -0.07975799 -0.06640476 -0.30614293 -0.5457188
-0.9222865 -0.27216244 0.5458516 -0.7565161 0.38432205 0.26700842 0.89744556 0.67258775
-0.07969612 -0.38185537 0.7953334 0.4219705 -0.7114458 0.94979715 0.094070256 -0.94928885

attention.k_proj.bias f4 [32]
00000000: 5c50 193f b2e6 223f 5e1b 5e3f 9063 f4be
00000010: c02a 033f 14a6 903e 0c89 f73e a4a4 fa3e
00000020: 4892 3e3e 2690 0bbf 10f1 45bf a6d9 3e3f
00000030: 7820 d5bd b80f 0e3e 5821 063e a085 e13e
00000040: d026 283f cce4 68be 7804 3fbc 2226 7c3f
00000050: 5845 87bd b6dc 17bf 889b f13e e8b9 3bbf
00000060: 2434 0dbf 04cc 52bf 34f6 e23e 3c2c fd3e
00000070: 3c51 8abe b22d 683f a825 0ebe f812 093b
0.59888244 0.63633263 0.8676051 -0.4773221 0.51237106 0.28251708 0.48346746 0.48953736
0.1861049 -0.5451683 -0.7732096 0.74550855 -0.104065835 0.13873184 0.13098657 0.4404726
0.65684223 -0.22743529 -0.01165878 0.98495686 -0.06605023 -0.59321153 0.47188973 -0.73330545
-0.55157685 -0.82342553 0.44328463 0.4944781 -0.27015102 0.90694726 -0.13881552 0.0020915847

attention.v_proj.weight f4 [32, 1]
00000000: 1cb9 7abe 38a0 213e c427 e33e d8a9 2a3f
00000010: b8ca 013e 18a4 a5bd a064 ab3e 48dc 52be
00000020: 2c33 ecbe 68cc 643f 5036 26bf fe78 5cbf
00000030: c07a 41bf 3c1b 3f3f 70da 433f a0a9 3ebe
00000040: 4857 dcbe 06ab 32bf ec50 1a3f 2a55 7fbf
00000050: aeb5 57bf dca5 773e e4f7 f8bd 2a3f 653f
00000060: 54f7 7dbf f4ba 5b3e 68ce bbbe 28eb b8be
00000070: 7894 ae3e 5eae 093f 983d 6ebf c41a e6bd
-0.24484676 0.15783775 0.44366276 0.6666541 0.12674987 -0.08087939 0.33475208 -0.20591843
-0.4613279 0.893744 -0.64926624 -0.8612212 -0.75577927 0.7465093 0.76505184 -0.18619394
-0.4303534 -0.6979221 0.60279727 -0.99739325 -0.84261596 0.24184364 -0.121566564 0.89549506
-0.9920552 0.21458036 -0.36680913 -0.3611691 0.34097648 0.5378169 -0.93062735 -0.11235574

attention.v_proj.bias f4 [32]
00000000: 6048 ea3e ec6b 10bf e838 ffbe 686d cb3e
00000010: 66c9 273f 0480 d53e f03e abbe 96c9 233f
00000020: ca87 343f 1071 0a3f 74e8 683d c0d2 39be
00000030: 9445 dabd ce8c 07bf 90a3 d6be 449f 7bbf
00000040: e848 8b3e a8d0 453f f876 e0be 788a a43d
00000050: ba3a 0f3f d0d0 bbbe 2056 3dbf 5a90 76bf
00000060: dc6d fe3e 8472 77bf 44f3 ef3d 48a1 eabe
00000070: 12c4 183f 04f3 f83d f8d2 293c 4817 8ebe
0.45758343 -0.56414676 -0.49848104 0.39731908 0.65541685 0.4169923 -0.33446455 0.6397947
0.705197 0.5407877 0.05686231 -0.18146801 -0.10657802 -0.52949226 -0.41921663 -0.98289895
0.2720406 0.7727151 -0.43840766 0.08034223 0.55948985 -0.3668275 -0.7395954 -0.96314013
0.4969319 -0.9665911 0.11716321 -0.45826173 0.5967418 0.121557266 0.01036524 -0.27752137

attention.out_proj.weight f4 [32, 32]
00000000: 5b3a a2bc 84eb e0bd 4f80 9f3c b790 5f3d
00000010: 4013 c2bd ad76 013e 6bed 6abb 680c ff3d
00000020: 26ec 12be f1e3 88bd 028b 333d e01f 97bc
00000030: 9b3e 14be 80f6 fb3c b3e7 ae3d b969 b03d
00000040: bfba ed3d 6fa5 193e 765e fd3c 36a0 8fbc
00000050: 5b6b 0fbd 3b09 033e 3496 ac3d 5e1f e7bd
00000060: 36bc 7f3d f798 24bc 3dcf 06bd ea0f 9cbc
00000070: 335c 2dbe 49c7 233d 515b 9fbb 0340 f53d
00000080: 854a b33d 85ca d4bd 8632 ea3c 22d9 7fbc
00000090: 68da 953d 5268 33be 8ebd 343e 2133 b9bd
000000a0: 84ca 0dbd 69a0 1fbe 268a a6bb 49d6 263e
000000b0: 531b fe3d 4f86 ab3d 4679 293b 1668 a23d
000000c0: bb69 0d3d 1f1e 2bbe 2bd1 a2bd e6b5 1bbe
000000d0: 16c3 0abd 1fd8 c53d a481 5bbd e33e 18be
000000e0: 41b8 e83d 745c 1ebe 911b b0bc e0d8 a73c
000000f0: c888 33be 1620 103d ea0a 2dbe 50e1 143e
00000100: 437d 03be d1ec 923d 52ae 09bd 8a6c d93d
00000110: 72ae 97ba 6253 b4bd 7964 483d 785b 91bd
00000120: 0a70 313c 05c0 9e3c dffa 293d b592 5e3c
00000130: 6290 23be e184 80bd 2cb9 573d 3e14 b83d
00000140: 48f7 a7bc 00ed f93d f43f d6bd d392 09be
00000150: 8af4 9dbd 981f 37bd b388 66bd 3d54 9cbd
00000160: 5833 23be 554d 4d3c 9d3c e1bd 68ec 063d
00000170: 6401 6c3d af44 5a3d 7954 b3bd 9c06 ab3d
00000180: 8f4c 513d 6ed1 f53d 93bd 98bd dc53 cfbc
00000190: 8698 303d 2829 323e 1984 67bd da14 c2bd
000001a0: 6e08 d23c 4b87 adbd 2765 c9bd bd5a 6ebd
000001b0: 12d8 c83d 85ce 2ebd b893 1abe c8a5 6a3d
000001c0: 7468 0ebe b2c4 063e 821c 943c 2c0e 23be
000001d0: fb07 f33d 90e1 1ebe 5c83 01be 07c6 c03d
000001e0: de7d 9dbd 9293 83bd 0609 e2bc 068c 513d
000001f0: 2cd8 79bd 3f29 fabd 0064 18be 4156 cc3d
00000200: 9fd1 d03d 1d79 1bbe 2b96 443d 5af3 cebd
00000210: 24a0 183e b17b 26be 9014 df3d 0e81 8f3d
00000220: 06c0 1cbe 8988 8bbd b3fb a33d fc84 ad3d
00000230: 22c8 63bd df44 b5bd 7fb6 13be 8fc8 dabb
00000240: 29e4 b53c 6b5e 503d 84bc 983c a447 a9bd
00000250: 92b8 27be 58e2 d33d a549 9abc 30c0 db3d
00000260: 33e2 143e ff96 353b d853 4a3d bc0b f83d
00000270: 467d 2dbd 5a5b e7bd d1e3 79b9 87c0 a03d
00000280: df83 89bc 625e 20bc f51f 13be 65ef c23d
00000290: 62f0 b4bc 4e14 033e bfe6 2bbe 6f04 853c
000002a0: 3d64 f7bb c9f3 eab9 3e10 1abe 56fc 013e
000002b0: 2193 323e 3e22 28be 5685 143e e730 fc3d
000002c0: 26c5 1cbe cf73 193d e758 ad3c 1db1 1d3e
000002d0: 4641 ae3d e0f8 1ebe de84 8d3d dbbb 0bbc
000002e0: 40ab 193e 9821 0a3e 6e9d d9bd fc68 92bd
000002f0: 8c5f 0abe 3f25 23be 2639 c6bd 89ce 12be
00000300: 80b7 423d 1870 91bd 40a6 49bd ef4f 28bd
00000310: c017 853c 6313 023d 0244 e9bd 12e9 303d
00000320: ce8a b83c f3b9 13be 804e c93c 80f4 afba
00000330: 37ab 2e3e 3f1c 773d eb10 23bd d291 103e
00000340: 755a b43d cddb 0ebe 1af9 cbbd 4b92 12be
00000350: 725e a1bd 43f7 f3bd 756c 423d 4b1f bebc
00000360: ad9c e8bd b1ac 5a3d 87b4 efbd 724e 043e
00000370: d0b4 efbd d311 58bc 76bf 30be 4f40 b13c
00000380: 36ae 99bb 2644 2dbe 75bb 24bd 7c47 093e
00000390: 7b1e 59bd 508f 233d 4a68 e13c 3ad2 ccbd
000003a0: 7d02 90bd 2f28 6ebd 7574 dabd 69b9 da3d
000003b0: c4d8 9c3d 3d19 4f3d aae4 36bd 81cf cdbd
000003c0: 9563 c93c 36c1 153e a204 273d 7e67 9f3d
000003d0: decb 30be e77c 2c3c 752f 23be a361 1e3e
000003e0: 8c72 8bbd 126d 03be 8d8d 9ebc 82a0 f53d
000003f0: adfd 7cbd de64 33be 12e1 0bbe 7a44 2a3c
-0.019803217 -0.10982421 0.019470362 0.05458137 -0.09476328 0.12642927 -0.0035847079 0.12453538
-0.14347896 -0.066841014 0.04383374 -0.018447816 -0.14477007 0.030757189 0.08540287 0.08613915
0.116078846 0.15004514 0.030928832 -0.01753245 -0.03501449 0.1279649 0.084270865 -0.1128528
0.06243535 -0.010046235 -0.03291248 -0.019050557 -0.16929702 0.039984975 -0.0048631807 0.119751
0.08754448 -0.1039019 0.028588545 -0.015615733 0.07317048 -0.17520264 0.17650434 -0.09042955
-0.034616962 -0.15588535 -0.0050823865 0.16292681 0.124075554 0.08375227 0.0025859638 0.07930009
0.03452466 -0.16710709 -0.07950052 -0.15206107 -0.033877455 0.096603625 -0.05359043 -0.1486774
0.11363269 -0.15464956 -0.02149752 0.020489156 -0.17532647 0.03518685 -0.16898695 0.14539075
-0.12840752 0.071740754 -0.03361351 0.10616405 -0.0011572374 -0.088049665 0.048923943 -0.070975244
0.010829935 0.019378671 0.041499015 0.013584782 -0.15973046 -0.06275345 0.052666828 0.08988236
-0.020503655 0.12203407 -0.10461417 -0.13434915 -0.07712658 -0.044707865 -0.05628271 -0.07633255
-0.15937555 0.012530644 -0.10997889 0.0329403 0.057618514 0.053288158 -0.08756346 0.0835087
0.051098403 0.12002836 -0.074580334 -0.025308542 0.043114208 0.17398512 -0.056522463 -0.09476633
0.025638785 -0.08473071 -0.098337464 -0.058192004 0.09806837 -0.04267742 -0.15095413 0.057287008
-0.13907033 0.13160971 0.01808 -0.15923375 0.118667565 -0.15515733 -0.12647766 0.09412771
-0.07690023 -0.06424631 -0.027592193 0.051158927 -0.060997173 -0.12214898 -0.14881897 0.09977389
0.10196232 -0.1518292 0.047994774 -0.101050094 0.14904839 -0.16258122 0.10892594 0.07007037
-0.15307626 -0.068131514 0.08006992 0.084726304 -0.055610783 -0.08851027 -0.14425085 -0.0066767405
0.022203522 0.050871294 0.018644579 -0.082656175 -0.16379002 0.10345906 -0.018833945 0.10730016
0.14539413 0.002770841 0.049396366 0.12111613 -0.0423558 -0.11296721 -0.00023831359 0.07849222
-0.016786514 -0.009788128 -0.1436766 0.09518317 -0.02208728 0.12800714 -0.16787241 0.016237466
-0.007549791 -0.00044813592 -0.15045258 0.12693915 0.17438938 -0.16419312 0.14503989 0.12314015
-0.15309581 0.03746396 0.021160556 0.15399595 0.08508544 -0.15524626 0.06910108 -0.008528675
0.15006733 0.13489377 -0.106257305 -0.071489304 -0.1351301 -0.15932177 -0.09678869 -0.143366
0.04753828 -0.07101458 -0.049230814 -0.041091856 0.016246676 0.03175677 -0.113899246 0.043191023
0.022527125 -0.14426403 0.024573565 -0.0013424307 0.17057501 0.060329672 -0.039811056 0.14118126
0.08806316 -0.13951035 -0.09959622 -0.14313619 -0.07879342 -0.11912396 0.047466714 -0.023208281
-0.113580085 0.053387348 -0.11704355 0.1292055 -0.11704409 -0.013187843 -0.17260537 0.02163711
-0.004689957 -0.16920528 -0.040217835 0.13406175 -0.053007584 0.039931595 0.02751555 -0.10001035
-0.070317246 -0.05814379 -0.10666744 0.106798954 0.07658532 0.05056118 -0.044651665 -0.10049344
0.024583617 0.14624485 0.040775903 0.077834114 -0.17265269 0.010527826 -0.15936072 0.15466933
-0.068089575 -0.12834576 -0.019354606 0.11993505 -0.06176536 -0.17518947 -0.13660076 0.010392303

attention.out_proj.bias f4 [32]
00000000: 95bd 01be d143 9dbd 291e 0d3e 6861 153e
00000010: 5b82 c8bd 430a 02bd f95c b23d 6c80 173e
00000020: 1799 c33b 21ab 59bd ef00 073c 2626 153e
00000030: 91ee 18bd 7314 2f3e 166a 7d3c 967a a7bd
00000040: 54f0 1abe 0f8e f73d 13fc 1fbd a8de 73bd
00000050: 4477 a8bc 877e ec3c a750 823d 634a e8bd
00000060: 5bbe 34bd 6e1d f5bd 66ca a3bc 0dc4 e2bc
00000070: 50d2 0e3d 7b6c 203d 0caf 013b 85b2 80bd
-0.12669976 -0.076789506 0.13781036 0.14587939 -0.09790488 -0.031748068 0.087091394 0.14795083
0.0059691775 -0.053141717 0.008239969 0.14565334 -0.03733689 0.17097645 0.015467187 -0.08177678
-0.1513074 0.120876424 -0.039058756 -0.059538513 -0.020564683 0.028868927 0.063630395 -0.11342313
-0.04412685 -0.11968504 -0.019993972 -0.027681375 0.03486854 0.039165955 0.0019788174 -0.0628405

norm.weight f4 [32]
00000000: 74fe 7f3f 74fe 7f3f 74fe 7f3f 74fe 7f3f
00000010: 74fe 7f3f 74fe 7f3f 74fe 7f3f 74fe 7f3f
00000020: 74fe 7f3f 74fe 7f3f 74fe 7f3f 74fe 7f3f
00000030: 74fe 7f3f 74fe 7f3f 74fe 7f3f 74fe 7f3f
00000040: 74fe 7f3f 74fe 7f3f 74fe 7f3f 74fe 7f3f
00000050: 74fe 7f3f 74fe 7f3f 74fe 7f3f 74fe 7f3f
00000060: 74fe 7f3f 74fe 7f3f 74fe 7f3f 74fe 7f3f
00000070: 74fe 7f3f 74fe 7f3f 74fe 7f3f 74fe 7f3f
0.9999764 0.9999764 0.9999764 0.9999764 0.9999764 0.9999764 0.9999764 0.9999764
0.9999764 0.9999764 0.9999764 0.9999764 0.9999764 0.9999764 0.9999764 0.9999764
0.9999764 0.9999764 0.9999764 0.9999764 0.9999764 0.9999764 0.9999764 0.9999764
0.9999764 0.9999764 0.9999764 0.9999764 0.9999764 0.9999764 0.9999764 0.9999764

norm.bias f4 [32]
00000000: 0000 0000 0000 0000 0000 0000 0000 0000
00000010: 0000 0000 0000 0000 0000 0000 0000 0000
00000020: 0000 0000 0000 0000 0000 0000 0000 0000
00000030: 0000 0000 0000 0000 0000 0000 0000 0000
00000040: 0000 0000 0000 0000 0000 0000 0000 0000
00000050: 0000 0000 0000 0000 0000 0000 0000 0000
00000060: 0000 0000 0000 0000 0000 0000 0000 0000
00000070: 0000 0000 0000 0000 0000 0000 0000 0000
0.0 0.0 0.0 0.0 0.0 0.0 0.0 0.0
0.0 0.0 0.0 0.0 0.0 0.0 0.0 0.0
0.0 0.0 0.0 0.0 0.0 0.0 0.0 0.0
0.0 0.0 0.0 0.0 0.0 0.0 0.0 0.0

mlp.0.weight f4 [64, 384]
00000000: e206 473d b546 1b3d faef 29bc e1a6 d7bc
00000010: 7c1a ecbc 95aa 13bd 1652 1fbc 9e4a 26bd
00000020: 83ac 8d3c 17d3 4ebd 7f80 d33c f91b dc3c
00000030: 8993 283c 47b9 f7bb a98c e5bc d6cf 85bc
00000040: b7e3 463d 27a7 203d 397b 17bd c4e1 28bd
00000050: 6b74 14bd 8bfc 9b3b 5f48 cb3c 9e77 813c
00000060: 22b2 203d dcc8 843c 5688 133d f854 553b
00000070: 6506 213d 8877 913b eb13 11bc 4231 bcbc
00000080: 66c3 d9bc 70e7 08bd 1c5d 4dbd 9f5d 963c
00000090: bd7c 9a3b 18de 423b 0cea d0bc 9c02 b03b
000000a0: cb73 4f3d 3da0 42bd 0eaa c3bc 7416 173d
000000b0: 4e7c e1bc d65b dcbb a2e8 a2bc 2d69 0e3d
000000c0: 7481 31bd fffc 0bbc da68 a63b ff64 dd3c
000000d0: 86fd 003d 0210 1438 1acc 063d e255 5f3c
000000e0: c0a3 f4bc 29f2 e13c 3d64 d23c af1c babc
000000f0: d8f6 9abc 8806 21bd 4c74 af3c ddc9 e9bc
00000100: 072b 1dbd 650e 3b3d 65a1 4bbd 9a5e 843c
00000110: 03eb 053d ab6b dd3c 202c 383c fb6d f63b
00000120: 066f 273c 7248 f7bb 52cd 0dbd f5af 203d
00000130: 3097 a7bc 297c 263d c389 0d3c 5688 4cbc
00000140: 8df2 053c 7604 2e3d 3ad3 4d3d 65e6 bbbc
00000150: 68ac 353d 3e94 94bc 6433 cdbb 1326 8cbc
00000160: 720c 58bc 6d9c 043d 82a7 dfbc b895 313d
00000170: b064 2f3d 7f5a 233c 1749 19bd 8bb0 92bc
00000180: 64fa eebb 873e 923c c772 c23b b09e dc3c
00000190: 5e70 093d eeb8 3abd 9d05 b23c 031c d73c
000001a0: 6595 d53a 8873 81bc 1895 1e3d b4a6 14bd
000001b0: 470c 04bd bd10 32bc b1e0 363d 739e 3dbc
000001c0: 69c1 123d 70e1 0e3d 51c4 1c3d 8774 38bd
000001d0: b9aa 333d c808 3bbb 8797 3bbd d14a 8dbc
000001e0: 8b94 613b 7a44 233c 9265 48bd 90d5 9cbc
000001f0: fd16 16bd 9fd8 ab3c 952c 50bd 72a9 573b
00000200: 6beb 0cbd aacc 883c fd6e 24bd 70a0 e93c
00000210: 3f36 1ebd cbf7 373c 5ae6 223d ef3a 913c
00000220: a80c 44bc 72b1 16bd 118c 0abc bbd6 3fbc
00000230: b1eb 153c 4830 283c f5b1 2f3d 591b 90bb
00000240: 4513 2ebd 3415 183d a2af 5b3c 1bfc 4cbd
00000250: 64e3 4f3d 2dd8 e53c 6d79 bc3b 61dc 84bc
00000260: 77c4 f7bc 1dde e7bc cbaf d1bc cbf0 c8bc
00000270: 6b85 2abd e2a6 8a3b 9bf8 1d3d f0b2 c63c
00000280: 00eb 2f3d a2fb 05bc 8185 99bc 60e9 b4bc
00000290: 67c8 283c f318 fb3c 2d44 fabb 2b39 01bb
000002a0: 3991 40bc b535 69bb 3a49 b4bb 0237 49bd
000002b0: d7d9 19bd 24da 06bd 9cb6 abbc e06e cb3c
000002c0: ba32 8ebc c24c 09bd b98e 223d 3a4f 3b3d
000002d0: 0fd9 16bd e91c 933c 86d8 4e3d f691 253d
000002e0: 7779 2dbd 1369 293d c43a 31bb 0915 ab3c
000002f0: ed56 b53a bc6c 6cbb d77f 4c3d 2ca7 fc3c
00000300: 4878 09bd 1540 503d 602d 44bd 33a2 f63c
00000310: 6194 2c3d 6d7e 30bd 37dd 4fbb 2520 c63a
00000320: 4785 e9bc 467e 8f3b db92 29bd d052 023d
00000330: d680 12bd 9e2d 0e3d 6ded 1fbc 732a 833c
00000340: a372 57bb 7df7 423d 5320 193c 802b 363d
00000350: 4f14 d63b de28 2d3c ea42 25bc 5096 f0bb
00000360: f8be 5bbc 6706 25bd 5860 213d b981 843c
00000370: e8a6 34bd 9007 cbbb 3ed9 0bbd 3af8 9c3c
00000380: e42d b7bc 1b70 b6bc f532 423d ed46 9f3c
00000390: 61e0 47bd 45e4 543c bb1e f6bc 9842 0cbd
000003a0: a63d 00bd 13cf 913c e4f6 37bd 3a69 97bb
000003b0: d431 7b3b 6428 33bc 0285 37bd 5e48 11bd
000003c0: 4de3 8b3c b2e1 da3c 45f0 183d d983 1dbd
000003d0: 7aaa 8b3c d5e9 9ebb 52eb 113a 920a 0bbc
000003e0: 0e7e 90bc b2b8 e33c badb aa3c 9d8d cd3c
000003f0: 5330 3d3c bde9 dd3c 9a90 b1ba 49bf a63c
0.04859055 0.03790923 -0.010372156 -0.026324691 -0.028821222 -0.03605135 -0.009724161 -0.040598504
0.017294174 -0.05049428 0.025818108 0.026868807 0.010289081 -0.0075599286 -0.028021174 -0.016334455
0.04855701 0.03922191 -0.03698275 -0.041230932 -0.036243837 0.00476033 0.024814783 0.015804108
0.03923238 0.016209058 0.036018692 0.0032551866 0.03931274 0.004439298 -0.0088548465 -0.022972707
-0.026582431 -0.03342384 -0.050137624 0.018355189 0.004714577 0.002973443 -0.025502227 0.005371405
0.05064754 -0.047516096 -0.0238848 0.036886647 -0.027525093 -0.006724815 -0.019886319 0.034768272
-0.043336347 -0.008544206 0.0050784172 0.027025698 0.03149178 3.5300858e-05 0.03290949 0.013631316
-0.029863238 0.027581291 0.025682563 -0.022718756 -0.018916532 -0.03931287 0.02141776 -0.028538639
-0.038371112 0.045668025 -0.049714465 0.01615839 0.032694828 0.02702888 0.011240989 0.007520435
0.010219341 -0.007546478 -0.034619637 0.039230306 -0.020457834 0.040645752 0.008638802 -0.012483677
0.008175504 0.042484723 0.05025027 -0.02293701 0.044353873 -0.018137094 -0.0062622298 -0.017107999
-0.013186561 0.03237574 -0.027301554 0.043355674 0.042820632 0.009970306 -0.03742322 -0.017906448
-0.0072930325 0.017852081 0.0059340927 0.026931137 0.033554427 -0.04558652 0.021731192 0.026258474
0.0016295133 -0.01580216 0.038716406 -0.036291793 -0.03223827 -0.0108682485 0.044647876 -0.011573422
0.03582898 0.034882963 0.03827316 -0.045033004 0.043863986 -0.002853917 -0.045798805 -0.01724759
0.0034420814 0.009965057 -0.04892499 -0.019144803 -0.036643017 0.020977316 -0.050823767 0.0032907394
-0.0344042 0.016699154 -0.04014491 0.028518885 -0.03862595 0.011228512 0.03977046 0.017728297
-0.011965908 -0.03679032 -0.008456246 -0.011708911 0.0091504315 0.010265417 0.042894322 -0.0043977913
-0.042498846 0.037129596 0.013408573 -0.050045114 0.050753966 0.028057182 0.00575178 -0.016218366
-0.030245049 -0.028304154 -0.02559652 -0.024528882 -0.041631144 0.0042313198 0.038567167 0.024255246
0.042948723 -0.00817767 -0.018740417 -0.022083938 0.010301686 0.030651545 -0.0076375217 -0.0019717913
-0.011753374 -0.003558499 -0.0055018933 -0.049124725 -0.037561264 -0.03292288 -0.020961098 0.024833143
-0.017358173 -0.033520468 0.039686892 0.045729853 -0.036828097 0.017958121 0.05049946 0.040422402
-0.042352166 0.041359972 -0.0027043084 0.020884054 0.001383511 -0.0036075553 0.049926605 0.030841433
-0.033561975 0.050842363 -0.047894835 0.03010664 0.042133693 -0.04308932 -0.0031717548 0.0015115781
-0.028505934 0.0043790666 -0.041399818 0.031817257 -0.0357674 0.034711473 -0.009761197 0.016011452
-0.0032874725 0.047599304 0.009346086 0.04447508 0.0065331827 0.0105688255 -0.010086754 -0.0073421374
-0.01341223 -0.04028931 0.03939852 0.016175138 -0.044104487 -0.00619597 -0.034142725 0.019161332
-0.02236075 -0.022270253 0.047411878 0.019443 -0.04879797 0.012993877 -0.03004395 -0.034243196
-0.031308793 0.017798936 -0.044913188 -0.0046206983 0.003832926 -0.010934923 -0.04480458 -0.035469405
0.017076159 0.026718948 0.037338514 -0.038455818 0.017049063 -0.0048496523 0.00055663765 -0.008486407
-0.017638233 0.02779803 0.020856727 0.02509194 0.011547166 0.027088994 -0.0013547123 0.020354884

mlp.0.bias f4 [64]
00000000: 1257 3fbd 1d42 84bc 4957 3d3d 46ce f83b
00000010: 8132 6e3c f0e9 4abc e733 d1bc 4843 563c
00000020: de42 d8bc 6976 403d 3969 903b 16d2 123b
00000030: 199e 2a3d 5b01 efbc a6fa 263b 93a0 3ebd
00000040: 9266 2a3d 8771 e5bc 6698 e13c 3b5b 6cbc
00000050: bffd 0cbd a1e8 f4bc 3653 0f3d cc49 91bc
00000060: b26e 3b3d 4a3e 43bd c2d2 453c 35b1 50bd
00000070: 0340 90bc e9e6 bd3b 4148 a33c a080 bbbc
00000080: 488d 293c d4b5 063d f80c f3bc fdee cbba
00000090: 8bfc 08bd 9f3d a4bc b262 40bd 0f5e cb39
000000a0: 19d0 eabc 5ece 713a 0f71 7abc 137a 14bc
000000b0: 9219 d8bc 2d94 87bc bcd1 00bd 34b6 443d
000000c0: ab30 cb3c 8bd0 8d3b 177d 1cbc 3a0a b93c
000000d0: c54f 77bc 0ef3 d73c 8ef4 89bc 0f01 ae3c
000000e0: 9d2e fbbc 7e97 c3bb 2685 36bd 319a 923c
000000f0: 51a9 46bc caa7 3c3d d94c 993c 0a92 2cbd
-0.046713896 -0.016144807 0.04622582 0.007592949 0.014538408 -0.012384877 -0.025537444 0.013077565
-0.026399072 0.046987925 0.004407075 0.0022403053 0.04165468 -0.029175451 0.0025478988 -0.046539854
0.041601725 -0.028008236 0.02753849 -0.014426048 -0.03442168 -0.029896082 0.034991466 -0.017735384
0.045759864 -0.047666825 0.012074174 -0.050950248 -0.017608648 0.005795349 0.019931914 -0.022888482
0.0103486255 0.03288825 -0.02966927 -0.0015558895 -0.03344397 -0.020048914 -0.046969123 0.00038789256
-0.028663682 0.00092241715 -0.015285744 -0.009062308 -0.02637938 -0.016550148 -0.03145002 0.048025325
0.02480348 0.004327839 -0.009551308 0.022587884 -0.015094702 0.026361015 -0.016840246 0.02124074
-0.030661875 -0.005968987 -0.044560574 0.01789579 -0.012125329 0.046058454 0.018713402 -0.04213146

mlp.1.weight f4 [64]
00000000: 74fe 7f3f 74fe 7f3f 74fe 7f3f 74fe 7f3f
00000010: 74fe 7f3f 74fe 7f3f 74fe 7f3f 74fe 7f3f
00000020: 74fe 7f3f 74fe 7f3f 74fe 7f3f 74fe 7f3f
00000030: 74fe 7f3f 74fe 7f3f 74fe 7f3f 74fe 7f3f
00000040: 74fe 7f3f 74fe 7f3f 74fe 7f3f 74fe 7f3f
00000050: 74fe 7f3f 74fe 7f3f 74fe 7f3f 74fe 7f3f
00000060: 74fe 7f3f 74fe 7f3f 74fe 7f3f 74fe 7f3f
00000070: 74fe 7f3f 74fe 7f3f 74fe 7f3f 74fe 7f3f
00000080: 74fe 7f3f 74fe 7f3f 74fe 7f3f 74fe 7f3f
00000090: 74fe 7f3f 74fe 7f3f 74fe 7f3f 74fe 7f3f
000000a0: 74fe 7f3f 74fe 7f3f 74fe 7f3f 74fe 7f3f
000000b0: 74fe 7f3f 74fe 7f3f 74fe 7f3f 74fe 7f3f
000000c0: 74fe 7f3f 74fe 7f3f 74fe 7f3f 74fe 7f3f
000000d0: 74fe 7f3f 74fe 7f3f 74fe 7f3f 74fe 7f3f
000000e0: 74fe 7f3f 74fe 7f3f 74fe 7f3f 74fe 7f3f
000000f0: 74fe 7f3f 74fe 7f3f 74fe 7f3f 74fe 7f3f
0.9999764 0.9999764 0.9999764 0.9999764 0.9999764 0.9999764 0.9999764 0.9999764
0.9999764 0.9999764 0.9999764 0.9999764 0.9999764 0.9999764 0.9999764 0.9999764
0.9999764 0.9999764 0.9999764 0.9999764 0.9999764 0.9999764 0.9999764 0.9999764
0.9999764 0.9999764 0.9999764 0.9999764 0.9999764 0.9999764 0.9999764 0.9999764
0.9999764 0.9999764 0.9999764 0.9999764 0.9999764 0.9999764 0.9999764 0.9999764
0.9999764 0.9999764 0.9999764 0.9999764 0.9999764 0.9999764 0.9999764 0.9999764
0.9999764 0.9999764 0.9999764 0.9999764 0.9999764 0.9999764 0.9999764 0.9999764
0.9999764 0.9999764 0.9999764 0.9999764 0.9999764 0.9999764 0.9999764 0.9999764

mlp.1.bias f4 [64]
00000000: 0000 0000 0000 0000 0000 0000 0000 0000
00000010: 0000 0000 0000 0000 0000 0000 0000 0000
00000020: 0000 0000 0000 0000 0000 0000 0000 0000
00000030: 0000 0000 0000 0000 0000 0000 0000 0000
00000040: 0000 0000 0000 0000 0000 0000 0000 0000
00000050: 0000 0000 0000 0000 0000 0000 0000 0000
00000060: 0000 0000 0000 0000 0000 0000 0000 0000
00000070: 0000 0000 0000 0000 0000 0000 0000 0000
00000080: 0000 0000 0000 0000 0000 0000 0000 0000
00000090: 0000 0000 0000 0000 0000 0000 0000 0000
000000a0: 0000 0000 0000 0000 0000 0000 0000 0000
000000b0: 0000 0000 0000 0000 0000 0000 0000 0000
000000c0: 0000 0000 0000 0000 0000 0000 0000 0000
000000d0: 0000 0000 0000 0000 0000 0000 0000 0000
000000e0: 0000 0000 0000 0000 0000 0000 0000 0000
000000f0: 0000 0000 0000 0000 0000 0000 0000 0000
0.0 0.0 0.0 0.0 0.0 0.0 0.0 0.0
0.0 0.0 0.0 0.0 0.0 0.0 0.0 0.0
0.0 0.0 0.0 0.0 0.0 0.0 0.0 0.0
0.0 0.0 0.0 0.0 0.0 0.0 0.0 0.0
0.0 0.0 0.0 0.0 0.0 0.0 0.0 0.0
0.0 0.0 0.0 0.0 0.0 0.0 0.0 0.0
0.0 0.0 0.0 0.0 0.0 0.0 0.0 0.0
0.0 0.0 0.0 0.0 0.0 0.0 0.0 0.0

mlp.1.running_mean f4 [64]
00000000: bae8 8a3e a035 f03e 6b2c 793f 8926 43bd
00000010: 0e29 0abe c1b8 aa3f 5299 ec3d f3f5 5d3e
00000020: 6e98 08bc 19bf 093f 4714 813c 8738 82bf
00000030: c187 103e 0736 603f 5bd7 473f 6968 893e
00000040: ef4e a33e 6afe 02bf 46e0 8b3d cd2b 8d3f
00000050: 037e 95be bb15 333e d481 69be ccc5 34bf
00000060: 0726 cfbd 937a 18bc 7a02 08bf 27ff ce3e
00000070: 5f7c febe 9def f13e 2204 a0be 645b d3bd
00000080: 62e4 f6be 942d b0bf 2e22 3cbf 39f9 81bf
00000090: 9525 3cbf 3e9f 5bbe 9a01 35be 5c48 b1be
000000a0: 4796 9fbf a824 4b3f e370 d7be 1a3d 43bf
000000b0: c735 44bf 0c7f a73e 453b b63e e2d0 6bbe
000000c0: de05 2ebe c6e9 b73e 53b1 4e3f c68d 203f
000000d0: 7c4c 253e b9ad 03bf 9101 e7be ed4a 493f
000000e0: b6e1 d03e 7fb2 963f 536b 1c3e 684a a13e
000000f0: cdbe ad3c 9ec6 86be 1e67 0b3f 5789 8b3e
0.2713068 0.46915913 0.973334 -0.047644172 -0.13492224 1.3337632 0.11552681 0.21675853
-0.008337123 0.53807217 0.01575674 -1.0173501 0.14114286 0.8758244 0.7806298 0.2683747
0.3189616 -0.51169455 0.06829886 1.1028992 -0.29197702 0.17488758 -0.22803432 -0.70614314
-0.10114675 -0.009306568 -0.5312878 0.4042904 -0.49704263 0.47253123 -0.31253153 -0.10320166
-0.48221117 -1.3763909 -0.73489654 -1.0154182 -0.73494846 -0.21447465 -0.17676392 -0.34625518
-1.2467736 0.7935281 -0.42078313 -0.7626511 -0.7664456 0.32714117 0.35592094 -0.23028901
-0.16994426 0.35920542 0.80739325 0.6271633 0.16142458 -0.51436955 -0.45118383 0.7862995
0.40797204 1.1773223 0.15275316 0.3150208 0.021209145 -0.26323408 0.5445422 0.2725322

mlp.1.running_var f4 [64]
00000000: e6b3 033c 6d67 133c 5c4e 103c 2ad1 483c
00000010: 6eee e23b 36ac e53b a35f 213c 06c2 ba3b
00000020: 34b0 013c cea1 233c e576 1c3c a39b 083c
00000030: 766a 2e3c c6e7 313c 5a5d 433c 9e2f 853c
00000040: b2a8 093c 6d10 533c 5fec e33b 6688 233c
00000050: 6108 733c fe07 eb3b d63c 413c f82a 373c
00000060: b0b2 553c 89ad ae3b 1fb7 c03b 9dbe 2d3c
00000070: e5a5 3b3c d10c 5f3c 8925 1c3c 04fb c63b
00000080: 6232 d63b dc85 073c da0a d03b 4619 453c
00000090: ff20 273c 78a8 603c 665b 193c ab07 f23b
000000a0: 0448 233c 4832 933c 16ef 393c 5fd0 193c
000000b0: 9501 8c3c 3978 f83b a602 163c 3941 5b3c
000000c0: 5c80 2f3c bc0c 813c eec2 d43b e1d0 483c
000000d0: ca0e 193c e4c7 153c 06d2 3f3c a724 1a3c
000000e0: 0c46 3e3c 204a cf3b 12f2 ea3b 4527 1a3c
000000f0: 6d1a 463c ab93 4d3c 13f4 f03b 2cd3 f13b
0.008038497 0.008996827 0.008807745 0.0122569 0.0069253957 0.0070090545 0.009849462 0.005699399
0.007915545 0.009987308 0.009549831 0.008337888 0.010645499 0.010858482 0.011924112 0.016258057
0.0084020365 0.012882334 0.006955668 0.00998125 0.014833541 0.0071725836 0.01179429 0.011179678
0.013043091 0.0053307456 0.0058812047 0.010604528 0.011453127 0.0136138955 0.009530433 0.006072404
0.006536768 0.008271661 0.00634895 0.012029951 0.010200738 0.013712041 0.00936017 0.007386168
0.0099659 0.017968312 0.011348506 0.009388058 0.017090598 0.007582691 0.009155905 0.0133822495
0.010711756 0.015753143 0.006492964 0.012256832 0.009341905 0.009141896 0.011707788 0.009408153
0.01161338 0.006325975 0.0071699703 0.009408777 0.012091261 0.012547414 0.0073533147 0.00737991

mlp.4.weight f4 [32, 64]
00000000: 3273 8a3d 5e37 d9bd 4e66 bcbd e82c 073c
00000010: c8de 2bbc 86d4 e8bd 78ba 03bb 4cc8 14bd
00000020: c27e cdbd 3a13 f73d 7865 54bc d8e9 9e3c
00000030: c8e9 ba3c e6df eb3d 2061 c7bd 58d1 7a3d
00000040: 2219 a63d 54f8 323d b817 223c 44ea 753d
00000050: 28fd a73d f4c7 bf3d a852 18bd 1c28 fdbc
00000060: 9021 413d 6ee0 ad3d b6c1 973d b6fe c43d
00000070: 1076 02bd 642a f53d 2854 04bd f832 4fbd
00000080: 7cd1 243d fa01 c6bd 3aec f23d 602e b63d
00000090: f40a 9c3d 842c 643c 2843 63bd 88ea 6bbd
000000a0: 0ca3 d73c 70b5 b53d c24b 9f3d f088 963d
000000b0: c601 ec3d acc8 fdbc 94f3 fbbc 72e3 c5bd
000000c0: 7c09 26bd 4a5a f33d 7e41 abbd e662 fd3d
000000d0: e05b 05bd 08e4 d3bc 9a85 e13d 96db f43d
000000e0: 38fa 2cbc cc3f a93d 6608 b73d 4637 ce3d
000000f0: 7463 e83a 0095 6f3d 345b 6f3b 80b7 90bc
00000100: 1845 9d3b ec86 b43d 04c6 143d 1c64 cabd
00000110: 7cdf 073d b6a4 c13d 408d 143d 90b3 9bbc
00000120: 6029 b5bd 90d1 5ebd 8c05 2abd 94dd 693c
00000130: 1a94 c23d 72ef c5bd 14c6 eb3d 1863 443d
00000140: 42b0 b83d 9c78 cbbd b095 cbbc bcf8 fdbc
00000150: 407d 553d f4b7 e6bb d0e4 bbbd 10bd 94bc
00000160: f4a1 723d c63b ef3d 4a86 dd3d a036 e93d
00000170: 2cb2 183d 2a51 d53d 0e90 83bd 68c9 983d
00000180: b8f5 95bb a460 1a3d 00be cebc 3a28 b13d
00000190: 6492 753c 1cf2 df3c b49f d53b 8873 43bc
000001a0: 70ea 1b3d f4ea 673c 64cb 793d bca2 a53d
000001b0: 924a 90bd c61d 89bd c865 9dbd 261a eebd
000001c0: 1a3a c3bd d8d1 cf3d 7e9e fe3d 503e 9f3c
000001d0: c89d 4bbd 981e 21bc 0e38 e6bd aa68 fdbd
000001e0: a4be ecbd d4f2 c5bd 662c c7bd 62e4 f13d
000001f0: 3875 0fbb 48d6 c4bc 680b b2bd 769f d6bd
00000200: 6403 983d 1235 dd3d 6611 873d dac6 ee3d
00000210: ce5e c6bd f062 58bd 4c48 8fbd 6871 4c3d
00000220: b075 a33c 7425 6e3d 08c7 adbd 7678 c4bd
00000230: d040 143d 141d 5fbd 1e30 de3d 5066 b2bc
00000240: 2494 263d e802 173d 58bd e8bd 508a 1dbd
00000250: 5826 c63c 2431 483d 7c55 f53c e050 b73d
00000260: ec2b 683d e411 0fbd 50df cdbd f034 593d
00000270: 9060 92bc f81d 0abd 48ad 1bbc 924b bfbd
00000280: 7c2f f9bc 8ac0 993d f292 86bd 74fb 47bd
00000290: 0ae6 87bd 7e4e a03d 6a07 a83d 3012 183d
000002a0: e27a f0bd 7e8e b63d d80d cd3c b07c cabd
000002b0: 6aa1 eb3d 0aab c13d b0f6 3cbd c0bb f7bd
000002c0: 90ff 25bd ecb6 b93d 644d fb3d 18c4 ac3c
000002d0: 9c0e 73bd 6438 dfbc f8d2 c83c 3490 61bd
000002e0: f839 533a 4448 dc3d 9031 eabd d813 15bd
000002f0: e8d2 1b3c 84db 56bc b0c5 cabd 7851 0bbc
00000300: e2b6 f6bd e427 bc3d 7c91 22bd b09e 653d
00000310: 7cdb d63d b047 1e3d b89d 1d3d 8c54 c23d
00000320: 8ca1 d73c 6076 b53c 4843 d53c 7c20 83bd
00000330: c830 c93c c20d dc3d ce42 8abd fafc bb3d
00000340: 74a9 78bc 4acc e13d 7886 9bbb 7844 743d
00000350: ae55 b23d 426c c63d d46f 1d3d a46d ab3d
00000360: 7c96 353d 24da f33d 4658 e93d 8cfc cc3d
00000370: fe06 963d f8e0 643d dced 4ebd dcd1 e73d
00000380: 6af3 923d f815 3cbc d465 e43d d42e febc
00000390: 0c09 d6bd bc2a 413d 789f c1bc 9c13 e2bd
000003a0: 481f 403c a479 95bd 00d1 cfbd 8ec0 f2bd
000003b0: 8a19 9f3d f8dc 0c3d e002 bf3c 565c cb3d
000003c0: 00dd 78bd 8cbb 0a3d 68c6 0a3d c811 54bc
000003d0: 6e35 b53d 20cb 90bc 8021 c83c becc c83d
000003e0: 18f1 0a3c 0ce5 983d 8cf3 f2bd be9f d1bd
000003f0: 18f7 3cbc 049e 473d 7853 53bd d47f 733d
0.06760253 -0.106062636 -0.091992006 0.008250453 -0.010490127 -0.11368661 -0.0020100158 -0.03632383
-0.10033943 0.12064214 -0.012963645 0.019398615 0.022816554 0.115173146 -0.09735322 0.061234802
0.081102625 0.043693855 0.00989335 0.060037866 0.082025826 0.0936431 -0.037188202 -0.030902915
0.04715115 0.08490072 0.07409994 0.09618895 -0.031850874 0.11970976 -0.03230682 -0.050585717
0.040238842 -0.09668346 0.11861463 0.08895564 0.07619277 0.013926629 -0.055483967 -0.057596713
0.026322864 0.08872497 0.077781215 0.073503375 0.11523776 -0.030979477 -0.030755796 -0.096625224
-0.04053639 0.11882456 -0.08362101 0.12372379 -0.032558322 -0.02586557 0.110118106 0.11955945
-0.010557704 0.082641214 0.08937149 0.10069136 0.0017729835 0.058491707 0.0036522867 -0.017665625
0.0047994964 0.08814797 0.036321655 -0.098823756 0.033172116 0.09455244 0.03626752 -0.01900652
-0.08845782 -0.054399073 -0.041509196 0.01427402 0.095009044 -0.09664811 0.1151239 0.047946066
0.090179935 -0.09935114 -0.02485165 -0.031002395 0.0521214 -0.007040972 -0.09174502 -0.018156558
0.05923648 0.11681323 0.10816629 0.11387372 0.037279293 0.104158714 -0.064239606 0.0746029
-0.004576411 0.03768982 -0.025237083 0.08650251 0.0149885155 0.027337126 0.0065192822 -0.0119294
0.038065374 0.014155138 0.060984984 0.0808768 -0.07045473 -0.06695132 -0.07685429 -0.11626081
-0.09532566 0.101474464 0.12432574 0.019438893 -0.04971102 -0.009833954 -0.1124116 -0.12373479
-0.11559799 -0.096654564 -0.09725265 0.11811139 -0.0021889936 -0.024027959 -0.08693582 -0.104796335
0.07422522 0.10801138 0.06595115 0.11659022 -0.09686051 -0.05282873 -0.069962114 0.04991284
0.019953579 0.058141187 -0.08485228 -0.095932886 0.036194623 -0.05447109 0.108490214 -0.021777302
0.04066862 0.036868006 -0.113642395 -0.038461983 0.024188206 0.04887499 0.029947989 0.089509726
0.056682512 -0.03492917 -0.10052359 0.053029 -0.01786831 -0.033719987 -0.009501763 -0.09340586
-0.03041815 0.07507427 -0.06570996 -0.04882379 -0.06635673 0.07827471 0.08204539 0.03712672
-0.11742188 0.08913897 0.025031015 -0.098870635 0.11505397 0.09456451 -0.046133697 -0.12096357
-0.040526927 0.09068093 0.122706205 0.021089599 -0.059340104 -0.027248569 0.02451466 -0.055069163
0.0008057649 0.10755971 -0.114352345 -0.036395878 0.009510733 -0.01311386 -0.09900987 -0.00850331
-0.12046601 0.09187296 -0.039689526 0.05605954 0.10491082 0.038642585 0.03848049 0.09488782
0.026322149 0.022151172 0.026033059 -0.0640268 0.024559394 0.107448116 -0.06751023 0.09179111
-0.0151771195 0.11025293 -0.0047462545 0.05963561 0.08707748 0.09688617 0.038436726 0.08370522
0.044332966 0.119068414 0.1139379 0.10009107 0.073255524 0.05587861 -0.05051981 0.113193244
0.07175334 -0.011479847 0.11152235 -0.031028189 -0.10450944 0.047159895 -0.023635611 -0.110388964
0.011726208 -0.07298592 -0.101472855 -0.11853133 0.07768543 0.03439042 0.0233168 0.09929721
-0.060757637 0.033870265 0.03388062 -0.0129436925 0.088480815 -0.017674983 0.024430037 0.098046765
0.008480333 0.07465562 -0.11862859 -0.102355465 -0.011533521 0.04873468 -0.051593274 0.05944808

mlp.4.bias f4 [32]
00000000: 9c1a f13d 12c6 c73d 5c85 49bd d8f0 8cbd
00000010: ba45 afbd f0e3 3f3d 78ba a83b d884 cabc
00000020: ac22 11bd 10c9 89bd 542b fa3d 3296 8fbd
00000030: 0a66 9bbd 3a10 e13d 3c26 a6bd 06e3 af3d
00000040: 0cdf d2bd 3292 fd3d 2808 adbc f869 21bb
00000050: 082d a03d 1af1 e9bd 148c 8f3d f800 0cbd
00000060: 6c32 f9bc 5235 c53d 6c30 7a3d b8a3 573d
00000070: f85a 103c b225 d1bd ec07 e63c 30ab b1bc
0.117726535 0.09754576 -0.049199447 -0.06881875 -0.08558221 0.046848238 0.005149182 -0.024721548
-0.035433456 -0.06727803 0.122152954 -0.07011069 -0.07587822 0.10989423 -0.081127614 0.08588223
-0.10296449 0.123814 -0.021122053 -0.0024629813 0.07821089 -0.114229396 0.0700914 -0.03418061
-0.03041955 0.09629311 0.061081335 0.05264637 0.008810751 -0.10212268 0.02807995 -0.021688074

mlp.5.weight f4 [32]
00000000: 74fe 7f3f 74fe 7f3f 74fe 7f3f 74fe 7f3f
00000010: 74fe 7f3f 74fe 7f3f 74fe 7f3f 74fe 7f3f
00000020: 74fe 7f3f 74fe 7f3f 74fe 7f3f 74fe 7f3f
00000030: 74fe 7f3f 74fe 7f3f 74fe 7f3f 74fe 7f3f
00000040: 74fe 7f3f 74fe 7f3f 74fe 7f3f 74fe 7f3f
00000050: 74fe 7f3f 74fe 7f3f 74fe 7f3f 74fe 7f3f
00000060: 74fe 7f3f 74fe 7f3f 74fe 7f3f 74fe 7f3f
00000070: 74fe 7f3f 74fe 7f3f 74fe 7f3f 74fe 7f3f
0.9999764 0.9999764 0.9999764 0.9999764 0.9999764 0.9999764 0.9999764 0.9999764
0.9999764 0.9999764 0.9999764 0.9999764 0.9999764 0.9999764 0.9999764 0.9999764
0.9999764 0.9999764 0.9999764 0.9999764 0.9999764 0.9999764 0.9999764 0.9999764
0.9999764 0.9999764 0.9999764 0.9999764 0.9999764 0.9999764 0.9999764 0.9999764

mlp.5.bias f4 [32]
00000000: 0000 0000 0000 0000 0000 0000 0000 0000
00000010: 0000 0000 0000 0000 0000 0000 0000 0000
00000020: 0000 0000 0000 0000 0000 0000 0000 0000
00000030: 0000 0000 0000 0000 0000 0000 0000 0000
00000040: 0000 0000 0000 0000 0000 0000 0000 0000
00000050: 0000 0000 0000 0000 0000 0000 0000 0000
00000060: 0000 0000 0000 0000 0000 0000 0000 0000
00000070: 0000 0000 0000 0000 0000 0000 0000 0000
0.0 0.0 0.0 0.0 0.0 0.0 0.0 0.0
0.0 0.0 0.0 0.0 0.0 0.0 0.0 0.0
0.0 0.0 0.0 0.0 0.0 0.0 0.0 0.0
0.0 0.0 0.0 0.0 0.0 0.0 0.0 0.0

mlp.5.running_mean f4 [32]
00000000: 26ce fd3e 20af d03d ce92 2fbd 3752 ab3e
00000010: f5bf a1bd 7c44 213c ca8c 60be e184 83be
00000020: 2cb0 283e 05e9 c6bd 1dfc 05bd cff7 22bd
00000030: 7335 e9bd ca10 393e 84ac ac3d 9f00 b83d
00000040: d5a5 83be caf4 b53d 777a c3be ed28 8abd
00000050: ffb4 f0bd 3102 90be 9ffa eebd 076c cbbd
00000060: aef4 4e3e 1d7e 623d fe3a 5b3c 1b20 ff3d
00000070: 3830 413e f739 c83b c6d8 15be a2e9 4fbd
0.4957134 0.101896524 -0.042864613 0.33461162 -0.07897941 0.009842988 -0.21928707 -0.25687316
0.16473454 -0.09712414 -0.032711137 -0.03978711 -0.11387148 0.18072811 0.08431342 0.089844935
-0.25712457 0.088845804 -0.3817937 -0.06746087 -0.11753272 -0.28126672 -0.11668896 -0.09932714
0.20210525 0.055296052 0.013380764 0.124572955 0.1886605 0.0061104256 -0.14633474 -0.05075992

mlp.5.running_var f4 [32]
00000000: d27f 433e 2155 323e f5f5 ca3d 45f1 173e
00000010: 9612 4f3e 6788 263e 35c1 143e 3514 273e
00000020: 173b 093e cd99 1f3e 07bb 113e 2975 173e
00000030: 4d12 113e 16ca ec3d 0431 0e3e 3bdc 033e
00000040: 3e59 293e 4076 353e 8f6e 7e3e 0c32 333e
00000050: 46b3 223e 2ed9 f33d 4bfc 233e c4ce 123e
00000060: f429 0a3e 3cbb 053e 9d53 c93d 3b02 0d3e
00000070: 6da7 3d3e aca0 493e 7bc3 463e edce 223e
0.19091728 0.17415287 0.09910194 0.14838131 0.20221934 0.16262971 0.14526828 0.16316302
0.13401447 0.15586014 0.14231502 0.14790787 0.14167137 0.11561982 0.13885885 0.1287698
0.1653795 0.1772089 0.24846862 0.1749956 0.158887 0.11906658 0.16014211 0.14336687
0.13492566 0.13059705 0.09830401 0.13770382 0.18520899 0.19690198 0.19410507 0.15899248

mlp.8.weight f4 [1, 32]
00000000: ef8e 063e f5b5 13bd b92f 9a3d c5b6 a9bd
00000010: 08bd cdbd 882b 32bd 998c 1bbe 5696 ea3d
00000020: 1a2f 1dbe c6a8 60bd 35b0 1bbe 0711 1dbe
00000030: 8359 603d e9d1 1bbe 18b2 f63c cc11 4e3d
00000040: c0f0 093e 15d7 233d 6221 f53c ba20 88bb
00000050: 98e5 bebc 59e8 a4bd e06d 4ebd bf3a 8a3d
00000060: 4cf7 d43d b405 273e f0ea 23be 2ed8 013e
00000070: 284c 083e 60b5 21be 3249 09be a2b0 1fbe
0.13140462 -0.0360622 0.075286336 -0.08286814 -0.100458205 -0.043498546 -0.15190352 0.114544556
-0.15349999 -0.054848455 -0.15203936 -0.15338527 0.054772865 -0.15216793 0.030114219 0.05030994
0.13470745 0.04000004 0.029923145 -0.004154292 -0.023302838 -0.08052129 -0.050397754 0.06749486
0.10398731 0.1631077 -0.1600759 0.12680122 0.13310301 -0.15791845 -0.13406828 -0.15594724
