experiments/2026-01-14_19-59-01_network_small_attention_mlp/best_model.pt (torch, 123253 bytes, 23 tensors)

attention.q_proj.weight f4 [32, 1]
000000 74 74 fd be cc ab 8d be f6 84 57 3f 16 88 77 3f
       -0.4950291 -0.27670133 0.8418726 0.96692026
000010 78 e1 4a 3d d8 57 19 bf 4a 67 0e 3f 80 37 9a 3e
       0.04953143 -0.59899664 0.55626357 0.30120468
000020 a4 c2 e2 be 06 10 3d bf 18 54 44 bd 18 3d 80 3e
       -0.44289124 -0.73852575 -0.04793176 0.2504661
000030 92 69 18 3f 2e fb 35 bf 34 eb 69 bd 7c 87 40 bf
       0.5953609 -0.71086395 -0.057109073 -0.7520673
000040 92 84 5d 3f 44 c8 25 3f e8 0e ca be 2a a4 25 3f
       0.8653041 0.64758706 -0.39464498 0.6470362
000050 4c 4e 1f 3f 8a 3f 2c 3f 22 7b 29 3f 2a d2 67 3f
       0.62228847 0.6728445 0.6620351 0.9055506
000060 f6 39 35 3f 2c db e2 3e f4 f2 63 3d 40 70 0d 3f
       0.70791566 0.4430784 0.05565162 0.55249405
000070 a2 6f 0c 3f f8 74 10 3d dc 06 1c bf 20 ee c0 be
       0.5485784 0.0352678 -0.60947967 -0.37681675

attention.q_proj.bias f4 [32]
000000 b4 27 70 3f 0c 0d ef be ac 10 0f 3f c0 e6 41 3e
       0.9381058 -0.4668964 0.55884814 0.1893568
000010 d8 7b 70 bf 60 fa ec be 04 08 2b bf 78 75 d2 3d
       -0.9393897 -0.4628477 -0.66809106 0.10276312
000020 a6 23 5e bf 7c ac 62 bf 28 ac 1f 3f 60 0d 4a 3f
       -0.86773145 -0.8854444 0.62372065 0.7892666
000030 5c b8 66 3e 6c ee 0f bf 30 42 29 bf dc dc e6 be
       0.22531265 -0.5622318 -0.6611662 -0.45090377
000040 dc f8 a3 be 64 30 e7 3e 34 ef 78 3d 54 74 73 bd
       -0.32025802 0.45154107 0.060774997 -0.05943711
000050 7c 71 54 3f 2a 8e 12 bf 5a d0 12 3f 4a 05 62 bf
       0.82985663 -0.57248175 0.5734917 -0.8828932
000060 fa 42 48 bf 60 f3 89 3e ce 5f 51 bf fc 25 fb 3e
       -0.782272 0.26943493 -0.8178681 0.49052417
000070 18 af 97 bd 10 3e 5f bf 74 d6 76 be 48 66 03 be
       -0.07406443 -0.87204075 -0.24105245 -0.12831986

attention.k_proj.weight f4 [32, 1]
000000 b4 88 cb be e0 51 74 bf 88 62 ca 3e e8 66 35 3e
       -0.39752734 -0.9543743 0.39528298 0.17715037
000010 40 ad cc 3e e4 4a be 3e a6 bd 3b 3f a6 06 0e bf
       0.3997593 0.37166512 0.73336256 -0.55478895
000020 04 1d f0 bd 58 30 1f 3d 4c 36 0c bf 18 69 ec 3e
       -0.11724284 0.038864464 -0.5477035 0.4617393
000030 3c af 76 3f 3c eb 2c 3f a0 9a 2b be 54 05 ff bd
       0.96361136 0.6754644 -0.16758204 -0.12452188
000040 74 0e 91 3e 52 b7 12 3f b4 96 f2 bd 9e 6a 13 3f
       0.2833134 0.57310975 -0.118451506 0.5758456
000050 70 79 34 3e 48 c9 87 3d f0 84 90 be 56 10 18 bf
       0.1762445 0.06630188 -0.28226423 -0.59399927
000060 98 a1 89 bd 7c 10 b2 be 40 38 9a 3e 74 c7 c8 3e
       -0.06720275 -0.34778202 0.3012104 0.3921467
000070 42 89 08 bf 20 b0 4e bf 78 41 46 3c f8 b0 3c bf
       -0.5333444 -0.80737495 0.01210057 -0.7370753

attention.k_proj.bias f4 [32]
000000 98 e3 bb 3d f4 ea 07 bf 4c 20 09 bf c4 b9 f5 be
       0.091742694 -0.53092885 -0.53564906 -0.4799329
000010 20 95 c1 be 2c dc 02 bf 2c 17 81 be d0 8a 02 be
       -0.37809086 -0.51117206 -0.2521299 -0.12748265
000020 82 6e 6f 3f b0 19 db be 50 e7 39 bf c8 54 cd bd
       0.93527997 -0.42793036 -0.7261858 -0.10025936
000030 88 af ce 3d 14 2e 65 bd 78 9f 67 bf 70 3e e1 3e
       0.10092074 -0.055952147 -0.90477705 0.4399295
000040 b8 8e 5a 3f 4e 5e 46 bf f6 ca 07 3f 7a 14 38 bf
       0.8537402 -0.7748765 0.5304407 -0.71906245
000050 e8 bd 67 bf a4 a5 5f 3e 28 25 b9 3e 90 0d 35 3e
       -0.9052415 0.2184053 0.3616116 0.17680955
000060 50 ae 38 be 68 40 9f be f8 24 0d 3b 2a c8 2d bf
       -0.18035245 -0.31103826 0.0021536928 -0.6788355
000070 38 f6 00 3d 3c 75 cf be ce 20 04 3f 4c ea 97 3e
       0.031484812 -0.4051913 0.51612556 0.29670942

attention.v_proj.weight f4 [32, 1]
000000 76 46 36 3f b8 9e c8 be 8c 5e 62 be 44 4d fc be
       0.71201265 -0.39183593 -0.2210638 -0.492777
000010 f6 e0 2c 3f 54 51 09 bf 94 8b 67 3e d8 08 44 bd
       0.67530763 -0.5363972 0.22611839 -0.047859997
000020 d8 a1 ce 3e b8 03 d0 3c 12 7e 5b bf e4 ad 58 3e
       0.40357852 0.025392398 -0.85739243 0.21160084
000030 d4 cc 7d 3d 22 e5 22 3f 78 74 92 3e 4a 7d 17 bf
       0.061962917 0.6363088 0.28604484 -0.5917555
000040 00 fa 03 3e b4 43 5c bf 7c a0 4e bf 90 9c 1a bf
       0.12888336 -0.86040807 -0.8071363 -0.60395145
000050 fe f9 5f 3f 38 0a c7 3e cc 61 c7 be 90 d9 21 3e
       0.8749083 0.38874984 -0.389418 0.1580565
000060 8c b5 71 be 18 01 e2 be 48 ec 11 be b0 f4 56 bf
       -0.23604411 -0.4414146 -0.1425029 -0.83967113
000070 b4 ee e8 be 96 4e 66 3f 6a 65 48 3f 42 44 13 bf
       -0.45494616 0.8996366 0.78279746 -0.5752603

attention.v_proj.bias f4 [32]
000000 30 7a f6 3e a4 c4 18 3f 06 35 23 bf 0c 99 df be
       0.48140097 0.5967505 -0.6375278 -0.43671453
000010 da 67 48 3f 24 42 da be 3c d9 f9 be 44 d9 af be
       0.78283465 -0.42628586 -0.4879855 -0.34345448
000020 08 a6 9f 3d a0 8f 38 bf 1c 51 5f bf 7c 27 4a 3f
       0.0779534 -0.72094154 -0.8723314 0.789665
000030 08 a2 72 bf f6 35 14 bf aa 5a 5c 3f 90 04 bf 3e
       -0.9477849 -0.5789484 0.8607584 0.37308168
000040 d4 92 44 3f 5a 1f 12 bf 98 37 03 3e 34 a7 6c bf
       0.7678654 -0.5707909 0.12814176 -0.9244263
000050 74 6b 55 3f 2c 99 2f 3f b8 d9 6d 3f 48 92 b0 be
       0.83367085 0.68593097 0.9291034 -0.34486604
000060 b4 6a 1d 3f 04 73 e8 be 78 88 cb be 04 73 d6 3e
       0.6149094 -0.4540025 -0.39752555 0.41884625
000070 18 9b bc 3e 7a 82 73 3f b4 be f7 3d 78 2a ce 3d
       0.36837077 0.95120966 0.120969206 0.10066694

attention.out_proj.weight f4 [32, 32]
000000 b1 a4 26 3e 32 81 85 3c 1e 7a f2 bb 97 88 23 be
       0.16273762 0.016296957 -0.0073998114 -0.15970074
000010 d5 30 19 be 3f 8d 27 be 34 0a 0d 3d 24 22 19 3e
       -0.14960034 -0.16362475 0.03443356 0.1495443
000020 2f 7e 55 bd fb e7 dc 3d dc f6 e3 3d ab e0 8b bc
       -0.05212229 0.10786434 0.11131069 -0.017074903
000030 cf 54 9f bd 1d bb 98 3d 00 c5 46 3d e5 47 df bd
       -0.07779848 0.07457564 0.048527718 -0.10902385
000040 0a d2 77 3d b8 64 19 be 1b 25 07 be 0d 5e c6 3c
       0.060503043 -0.14979827 -0.13197748 0.024214769
000050 d0 e7 00 be d2 27 b6 bc 83 7d 7c bd 24 5f 0a be
       -0.1258843 -0.022235785 -0.061643135 -0.13512856
000060 39 8f 06 be 03 03 bb bd 0f 00 27 3b f4 25 76 bd
       -0.13140573 -0.09131434 0.0025482213 -0.06009479
000070 12 6e da 3d df 72 f2 bb 4c 26 10 3e 6f 35 16 be
       0.106655255 -0.0073989476 0.14077109 -0.14668821
000080 f3 da c1 3d e8 6f 07 3e 91 b8 2f 3e 7f 91 ca bd
       0.094655894 0.13226283 0.1716025 -0.098910324
000090 b1 f2 d9 3d 21 0a d2 bd cb 03 27 bd 4f 06 03 be
       0.10641993 -0.10255838 -0.0407751 -0.12795375
0000a0 40 2a 05 be 3a 5a c4 3d 53 02 16 be 93 12 38 3d
       -0.13004398 0.09587522 -0.14649324 0.04493959
0000b0 a0 f8 ec bd d9 44 bc 3d 23 f6 50 bd 81 6a 1e be
       -0.11570859 0.09192819 -0.051015984 -0.15470316
0000c0 d3 f7 de 3b 12 5d 21 be 48 06 5a bd 61 8d 21 3e
       0.0068044453 -0.1575816 -0.053228647 0.15776588
0000d0 dc 8b 0b 3c 85 d8 b4 bc fc 86 1e 3e d2 86 98 bb
       0.008517232 -0.0220759 0.1548118 -0.0046547437
0000e0 f9 9e 85 bd 1f 10 31 be c7 c9 ca bc f9 af 94 3d
       -0.06524462 -0.17291306 -0.024754418 0.072601266
0000f0 64 50 a7 3d 48 0a fd bd 36 2b 45 3d d4 19 91 bd
       0.0816963 -0.123554766 0.048136912 -0.070850044
000100 01 5c fe 3c 07 03 08 3c 90 ff 29 be 41 78 24 3e
       0.03104973 0.008301503 -0.16601396 0.16061498
000110 ff ae 80 bd 4d b2 bf bd bf 31 ca bd b2 9c 03 3e
       -0.06283378 -0.0936018 -0.098727696 0.12852743
000120 53 57 d0 bb cb 7d f9 bd 7f d6 2b 3e d8 c2 69 3d
       -0.006358066 -0.12182196 0.16781043 0.057070583
000130 38 88 12 3c 80 8f b4 3d eb 47 51 bc e1 87 73 bd
       0.00894361 0.08816433 -0.012773494 -0.059455756
000140 ca 54 18 3e 79 b6 44 bd 6b e4 20 3e 9c 83 f6 bd
       0.14876094 -0.048025582 0.15712135 -0.12036821
000150 9b b8 4a 3d 70 de a4 3d 75 bd d2 bd d1 8f d5 bc
       0.04949246 0.08050239 -0.10290042 -0.026069554
000160 08 ac 07 3d be a3 ad 3d 91 04 58 3d e4 e3 2f be
       0.033123046 0.08478497 0.05273873 -0.17176777
000170 46 e2 32 3e 3d 15 8e 3d 72 a5 04 3e 9f ba 2e 3e
       0.17469129 0.06937645 0.12953737 0.17063378
000180 13 9d 8f 3d f7 01 2b 3e 92 08 aa bd b4 6b 47 bd
       0.070123814 0.16699968 -0.08302416 -0.048686698
000190 70 67 08 3c 43 aa 2f 3e 95 4b 33 3e 01 38 84 3d
       0.008325443 0.17154793 0.17509301 0.064559944
0001a0 46 fa 00 be a0 69 cf bd cf 73 f0 bb db 26 aa bd
       -0.12595472 -0.10127568 -0.007338024 -0.08308192
0001b0 0c 26 05 bd 77 45 13 3e a1 a1 34 3c 8d 8f ca bd
       -0.032506987 0.14381967 0.011024863 -0.098906614
0001c0 b4 a7 4e bd 05 6e 80 3b 9d 0b 21 3e 4b 49 ff bd
       -0.050452903 0.0039193654 0.15727086 -0.124651514
0001d0 9d 7f bc bd c4 15 2a 3e 70 08 e6 3d 0e 3c b3 3d
       -0.09204028 0.16609865 0.11232078 0.08751689
0001e0 c3 ca aa bd 3a c1 11 3e 56 bb 91 bd 19 ce 7d bd
       -0.08339455 0.14233866 -0.071158096 -0.06196413
0001f0 0a f1 31 3d 0e 96 d8 bb 18 05 e1 bd b5 88 1a 3c
       0.043442763 -0.006609685 -0.109873 0.009432008
000200 dd 75 04 3c 08 ae c4 bd f3 a2 ca bd ad 07 03 3e
       0.008084741 -0.09603506 -0.09894361 0.12795897
000210 ad 9c 0b be f4 d0 da 3d 20 ac 41 3d c3 d4 04 3e
       -0.13633986 0.10684386 0.04728329 0.12971787
000220 ef b7 22 3e 82 7d 33 3d ae bd c3 3b 0d e4 d5 3d
       0.15890478 0.043820865 0.0059735393 0.10443888
000230 b7 0b 87 bd dc 17 2c be 1c 79 68 bd b3 55 c2 bd
       -0.06594031 -0.16805977 -0.056756124 -0.09489002
000240 f1 d9 4c 3d a9 aa 15 be c6 27 07 3e f8 8b e0 3d
       0.050012533 -0.14615883 0.13198766 0.10964197
000250 62 2b c2 bc 1f d1 a2 bd f9 40 f9 bd d0 64 e2 bb
       -0.023702327 -0.07950043 -0.12170596 -0.0069089904
000260 0e 4a b5 bc 0a 2c 9b bd 27 22 45 3d 2f 44 8e bd
       -0.022130039 -0.07576759 0.048128273 -0.06946599
000270 1e de bb bd 3d 7d ed 3d e6 88 09 3e 29 56 10 3d
       -0.09173225 0.11596153 0.13431129 0.03523842
000280 ee ce 34 be 7a 6a bc bc 35 c5 b2 3d 0c dc 28 be
       -0.17657062 -0.02299999 0.087290205 -0.16490191
000290 63 73 60 3d 19 3b 1f bd b7 43 18 3e f8 15 ef bd
       0.05479754 -0.03887472 0.14869581 -0.11674112
0002a0 84 1a 01 be 95 08 10 3e 22 05 b9 3d da 0e 32 be
       -0.12607771 0.14065774 0.09034182 -0.17388478
0002b0 6a b9 f9 3d 8c c0 f3 3d 5c fa df 3d 07 f4 45 bd
       0.12193568 0.1190196 0.10936424 -0.048328426
0002c0 f8 26 84 bd b5 74 bc 3d 49 c2 6a 3b 34 6f c9 bd
       -0.06452745 0.092019476 0.003582137 -0.098356634
0002d0 d7 68 9f bd d9 e4 99 bd fe ec 10 3e 48 a5 cc 3d
       -0.077836685 -0.07514352 0.14152905 0.099924624
0002e0 3a 5a ba 3b a5 5d 11 3c 0a 51 84 3d 73 4e 31 3d
       0.0056870254 0.008872424 0.064607695 0.043287706
0002f0 d0 ce 46 bd 9f 4b a0 3d 29 35 02 be a8 cf 13 3e
       -0.048537076 0.078269236 -0.12715591 0.14434683
000300 8b 10 83 3d 13 e3 83 bd 46 77 69 bc 20 fb cd 3d
       0.0639964 -0.06439795 -0.014249628 0.10057664
000310 ef e4 8b 3d ba 5f 08 be 48 e6 bd bd 1c 81 c4 3d
       0.06830775 -0.13317767 -0.09272438 0.09594938
000320 1e 8e 8e 3d 13 85 98 bd af 78 97 bd 61 46 04 3d
       0.069607005 -0.07447257 -0.073960654 0.03229368
000330 dc 4e e6 3d bd e3 b7 3d 42 4f 8f 3d 21 f1 dc bd
       0.1124551 0.089789845 0.06997539 -0.10788179
000340 06 76 cf bc 0c 4d b1 bd 8e 4e 3f bd 1d b5 30 be
       -0.025324833 -0.08657274 -0.046705775 -0.17256589
000350 4d 89 c5 3d 54 21 46 3c 04 fc 2a 3d 96 ec 10 3e
       0.09645329 0.012092907 0.041744247 0.1415275
000360 d1 26 fe bd f2 3f 33 be c3 b0 c6 3d 50 53 46 bd
       -0.124097474 -0.17504862 0.09701683 -0.048419297
000370 3d f2 1c be f6 15 1d be ab df 78 bd 0d 5a 77 3d
       -0.15326782 -0.15340409 -0.06076018 0.060388613
000380 61 13 30 3e 41 34 1f be d3 f3 b1 bc a2 4d f5 3d
       0.17194892 -0.15547277 -0.02172271 0.11977698
000390 9f df ee 3d 3a 19 2d 3e ac 96 a1 bd de fe 5b 3d
       0.11663746 0.16904154 -0.078900665 0.053709857
0003a0 82 70 45 bd 49 85 cc 3d 75 8b 2b be 06 b6 72 bd
       -0.048203 0.099863596 -0.16752417 -0.059255622
0003b0 5f 23 98 bd 91 b0 c9 bc 6f 98 8d 3d ae ee b0 3d
       -0.074286215 -0.024620326 0.0691384 0.086392745
0003c0 a8 d1 8a 3d d9 27 0f 3e e5 ca c5 3d bd 2f 41 3d
       0.0677827 0.13980044 0.0965784 0.047164667
0003d0 ed 9c 96 bd eb 96 2e be 92 60 30 3e 24 c1 fa bc
       -0.0735415 -0.17049758 0.17224339 -0.030609675
0003e0 c3 69 62 bc 70 ec 18 3e a1 11 1a bd 87 fd 89 bd
       -0.013819161 0.14933944 -0.03761447 -0.0673781
0003f0 f1 e3 1f 3d cf a6 db 3d a4 2b 00 3c 19 91 fb 3d
       0.03903574 0.107251756 0.007822905 0.122835346

attention.out_proj.bias f4 [32]
000000 2e b1 4a 3d 8c ce 04 3e a2 74 3a bd f3 7c cb bd
       0.049485378 0.12969416 -0.045521386 -0.099359415
000010 94 54 f4 bd 58 28 60 bd 91 eb f8 bd f6 c8 c3 bd
       -0.119301945 -0.054725975 -0.12154306 -0.09559815
000020 29 bc eb 3d 74 e5 f9 3d 8f 39 0e be 77 a6 12 3e
       0.11510498 0.12201968 -0.13889144 0.14321314
000030 37 23 90 bd 8b 18 f3 3d 4a c8 0c 3e 6b b4 f9 bd
       -0.07037967 0.118699156 0.13748279 -0.12192615
000040 b5 ae 1c be d4 f9 27 3e 07 4c fc bd 6f 9e 20 3e
       -0.1530102 0.16403896 -0.123191886 0.15685438
000050 25 02 b6 3d eb 2a 01 be b3 8b a5 3d 4f 0d 9e bd
       0.08887128 -0.12614028 0.08083286 -0.07717382
000060 a1 a9 21 3e ad d3 6a bd 8d c1 ba bd 37 6b 02 be
       0.15787365 -0.057330776 -0.09118948 -0.12736212
000070 f3 f1 17 3d 27 73 3a 3b 29 10 77 3d 75 de b7 bd
       0.037095975 0.0028449984 0.060318146 -0.08977977

norm.weight f4 [32]
000000 74 fe 7f 3f 74 fe 7f 3f 74 fe 7f 3f 74 fe 7f 3f
       0.9999764 0.9999764 0.9999764 0.9999764
000010 74 fe 7f 3f 74 fe 7f 3f 74 fe 7f 3f 74 fe 7f 3f
       0.9999764 0.9999764 0.9999764 0.9999764
000020 74 fe 7f 3f 74 fe 7f 3f 74 fe 7f 3f 74 fe 7f 3f
       0.9999764 0.9999764 0.9999764 0.9999764
000030 74 fe 7f 3f 74 fe 7f 3f 74 fe 7f 3f 74 fe 7f 3f
       0.9999764 0.9999764 0.9999764 0.9999764
000040 74 fe 7f 3f 74 fe 7f 3f 74 fe 7f 3f 74 fe 7f 3f
       0.9999764 0.9999764 0.9999764 0.9999764
000050 74 fe 7f 3f 74 fe 7f 3f 74 fe 7f 3f 74 fe 7f 3f
       0.9999764 0.9999764 0.9999764 0.9999764
000060 74 fe 7f 3f 74 fe 7f 3f 74 fe 7f 3f 74 fe 7f 3f
       0.9999764 0.9999764 0.9999764 0.9999764
000070 74 fe 7f 3f 74 fe 7f 3f 74 fe 7f 3f 74 fe 7f 3f
       0.9999764 0.9999764 0.9999764 0.9999764

norm.bias f4 [32]
000000 00 00 00 00 00 00 00 00 00 00 00 00 00 00 00 00
       0.0 0.0 0.0 0.0
000010 00 00 00 00 00 00 00 00 00 00 00 00 00 00 00 00
       0.0 0.0 0.0 0.0
000020 00 00 00 00 00 00 00 00 00 00 00 00 00 00 00 00
       0.0 0.0 0.0 0.0
000030 00 00 00 00 00 00 00 00 00 00 00 00 00 00 00 00
       0.0 0.0 0.0 0.0
000040 00 00 00 00 00 00 00 00 00 00 00 00 00 00 00 00
       0.0 0.0 0.0 0.0
000050 00 00 00 00 00 00 00 00 00 00 00 00 00 00 00 00
       0.0 0.0 0.0 0.0
000060 00 00 00 00 00 00 00 00 00 00 00 00 00 00 00 00
       0.0 0.0 0.0 0.0
000070 00 00 00 00 00 00 00 00 00 00 00 00 00 00 00 00
       0.0 0.0 0.0 0.0

mlp.0.weight f4 [64, 384]
000000 f7 a6 fd 3c 79 73 1b 3d b6 38 17 3d b4 04 cf bc
       0.030963404 0.03795192 0.03691932 -0.025270797
000010 b5 e9 02 bb 28 5b 40 bd 3f fb b0 3c 13 ff 69 3c
       -0.0019975726 -0.046961933 0.021604178 0.014282006
000020 3d be a2 bc a5 09 8e 3b ee 9a 10 3d 44 f0 cf 3c
       -0.019866103 0.004334646 0.035304002 0.025383122
000030 42 7b f3 3c 88 1e 32 bd d7 97 04 3d 74 7c f5 3c
       0.02972186 -0.043486148 0.03237137 0.02996657
000040 46 55 e7 bc be f9 41 bd 4e c1 ae bc 75 d9 42 3d
       -0.028238904 -0.047357313 -0.02133241 0.047570664
000050 ea 58 0e bd 78 9a 13 3d a9 b9 0d 3d 84 c2 86 3c
       -0.034752764 0.036035985 0.034600887 0.016450174
000060 a3 9f 6c 3c d6 9d 2d bd 7f 61 ec 3c e0 8e 24 3c
       0.014442357 -0.042386852 0.028855084 0.01004383
000070 b5 bc 99 3c 86 31 fb 3c f0 cb fd bb c4 20 0a bd
       0.01876674 0.030663263 -0.0077452585 -0.033722654
000080 9f c2 d9 3c 84 8d 5c bc 4c ce c8 bc f9 0c 9c 3c
       0.02658206 -0.013461474 -0.024512433 0.019049155
000090 2d 2b 01 bd 3b eb 92 3c 87 6d bf 3c 5d be 58 3c
       -0.031535316 0.017934432 0.023367656 0.01322898
0000a0 3c a8 2f bc 9d 1d 89 3c b4 fc ca 3c 7e 65 61 3a
       -0.010721263 0.016737754 0.024778701 0.00085981924
0000b0 95 ce 1e bb 24 6d 26 3d 4c c7 a7 bc da d8 05 3d
       -0.002423202 0.04063143 -0.020480774 0.03267751
0000c0 14 b2 d1 3c 67 54 a2 3c 8f b8 4f 3d 15 da 9b 3c
       0.02559761 0.019815637 0.05071312 0.019024888
0000d0 18 77 c5 bc fe 3f 3c bd 61 38 2d 3d 79 14 26 bc
       -0.02410464 -0.045959465 0.042290095 -0.010136717
0000e0 e9 21 13 bd c6 65 9f 3c e5 eb 28 bc 87 d3 32 3c
       -0.03592101 0.019457709 -0.010310148 0.01091469
0000f0 3f 12 12 bd 5f fa a1 bc aa 39 05 3c f3 bb 96 3c
       -0.035661932 -0.019772707 0.008131424 0.018400168
000100 88 35 68 3c d0 6b 19 3d 38 62 29 bd dd 56 d7 bc
       0.014172919 0.037456334 -0.041353434 -0.026286537
000110 95 87 d0 3c 10 ee 22 bd 2a 6d e4 bc cf 17 84 bb
       0.025455276 -0.039777815 -0.027884085 -0.0040311585
000120 02 0b 11 bd 1d 80 a9 3c ab d3 ea 3a 16 0f 45 3d
       -0.03541089 0.020690972 0.0017915865 0.04811009
000130 f3 c3 20 3d 42 22 8d 3c f2 66 b1 3c 76 dd 0e 3d
       0.03924937 0.01722825 0.021655533 0.03487917
000140 b5 05 eb 3c 5e 3b 16 3d 29 ef 2f bd 1d 56 c5 3c
       0.028689245 0.03667771 -0.04295269 0.024088914
000150 1e e4 30 3b fa a9 74 3c a0 ab be 3c 52 79 25 bd
       0.0026991437 0.014933104 0.023275197 -0.040398903
000160 a6 ee 10 3d dd 2d 2f bb 6b 11 dd 3c ca 05 e9 bb
       0.035383843 -0.0026730218 0.026985845 -0.007111286
000170 c2 34 4a 3d d7 31 39 3d 2a 65 47 bc 72 18 bb bc
       0.04936672 0.045213547 -0.0121701155 -0.022838805
000180 39 2d 49 3d 81 d2 10 3d 7f 68 2d bd 22 6d 16 3d
       0.049115393 0.035357002 -0.042335983 0.03672517
000190 9e 82 26 3d 71 d9 e8 bb 72 34 9d 3c e3 bb 3b bd
       0.04065191 -0.007105999 0.019190047 -0.04583348
0001a0 80 fa a4 3a fc 1b f7 3c 40 06 8a bc 30 ba 4b 3d
       0.0012586862 0.030164711 -0.016848683 0.04973811
0001b0 e7 2c b0 3c 4c 96 93 bb a4 a4 c9 3c d2 bd 82 3b
       0.021505786 -0.004504001 0.02461464 0.0039899135
0001c0 95 4c b8 bb c0 0e c4 3c 6b b3 e6 bc 8f dc bb bb
       -0.0056243637 0.023932815 -0.028161725 -0.0057330797
0001d0 ad 4e 6c 3c 5c c9 e1 bb 82 81 3f 3c 0d cf a3 3c
       0.014423055 -0.006890459 0.011688592 0.01999619
0001e0 87 a0 9d bb fe 64 3b bc 30 32 81 bc 7a 4d fa 3c
       -0.004810396 -0.011437653 -0.015771002 0.030554522
0001f0 17 4a 06 3d 76 9e 1b bd a4 53 0a bd 3c 4f 12 bd
       0.0327855 -0.037992917 -0.033771172 -0.035720095
000200 48 9d 22 3d d8 65 ed 3c a1 22 45 bd 0f 68 4c bd
       0.039700776 0.028979227 -0.048128728 -0.049903926
000210 fc df 3b bd 8c 44 76 3b 9e 69 46 3d 6a ff 4f 3d
       -0.045867905 0.0037577478 0.04844057 0.05078069
000220 0c 8c a3 3c 62 e3 1b bd 5b 28 38 bd 53 8e 98 bc
       0.01996424 -0.038058646 -0.04496036 -0.018622553
000230 73 f9 90 bc 2e fd 50 3d 18 77 df 3c 54 bf 85 bc
       -0.017697072 0.0510227 0.027278468 -0.016326584
000240 91 28 2b 3d 39 54 db 3c a0 ad 0a bd f7 b8 42 bd
       0.041786734 0.026773559 -0.033856988 -0.047539677
000250 5a be e6 3c d7 37 93 3b 35 87 c0 bc ef 49 dd 3c
       0.028166939 0.0044927406 -0.023501972 0.027012793
000260 64 63 5c 3b 62 0f 82 3c 6e e7 dd bb bf d0 28 bb
       0.0033628577 0.015876476 -0.0067719733 -0.0025759188
000270 95 e3 2f 3d 61 9a 18 bd 4d 26 4e 3d 83 a5 6a bc
       0.04294165 -0.037256602 0.050329495 -0.014321688
000280 60 44 50 bc 3d 8d a6 39 b0 e9 46 bd 25 c4 35 bd
       -0.012711614 0.00031767218 -0.048562706 -0.04437651
000290 45 49 63 3a 32 42 77 bc 9c 60 dc 3c 7d fa 96 ba
       0.0008670281 -0.015091466 0.026901536 -0.0011518743
0002a0 e7 c4 0c bd 86 ff af bc 6f 1e 19 bc cc e9 aa 3b
       -0.03436747 -0.021484148 -0.009345635 0.005215859
0002b0 9f 45 2f 3d 49 3e 04 bc c5 a3 df 3c b1 4d 21 3b
       0.042791005 -0.008071491 0.027299771 0.0024612958
0002c0 58 86 95 bc 20 f4 35 3c 6d 70 9a bc 19 1f 1c bd
       -0.018252537 0.011105567 -0.018852437 -0.038115595
0002d0 04 64 50 3d 64 89 c9 b9 e4 8d a5 bc 8e f1 aa b9
       0.050876632 -0.00038440072 -0.02020926 -0.000326049
0002e0 0e 18 d1 3c 07 af 12 bd 65 c2 ad 3c b0 42 9b bb
       0.025524165 -0.03581145 0.021210859 -0.0047381744
0002f0 04 40 08 3d 89 80 52 3c ca 56 1d bb 8b d2 46 bd
       0.033264175 0.012848028 -0.002400803 -0.048540633
000300 37 98 26 bd 12 3f d7 3c 43 58 ef bc 43 bf 21 3d
       -0.040672507 0.026275191 -0.029216891 0.039489042
000310 db a3 07 bd 89 ef e4 bc 38 3b 33 ba 67 ba 25 3c
       -0.03311525 -0.02794625 -0.00068371324 0.010115243
000320 c3 db 34 3d 1a d1 26 3d 27 57 1b 3d 41 03 a9 3c
       0.044154894 0.04072676 0.03792491 0.020631434
000330 ac 1a 22 bd 0d e8 9c 3b 4e 0e 58 bc ba 41 11 3d
       -0.039576218 0.004788405 -0.013187004 0.035463072
000340 17 73 a0 3c cc 13 ff bc d7 7c 11 3c 9f 91 4a bd
       0.01958613 -0.03113737 0.008879862 -0.04945528
000350 1b f3 58 bc 5f 15 a4 bb 81 55 70 3c c9 f3 e0 3c
       -0.013241555 -0.0050074304 0.014668823 0.027459996
000360 20 c1 1d 3d 09 fb 25 bc f7 32 a6 bc 59 3d 77 3c
       0.038514256 -0.010130652 -0.020287974 0.01509031
000370 11 2f 26 bd 8c cc 52 bc 2e b2 b1 3b 11 ce 92 3c
       -0.04057223 -0.012866151 0.005422852 0.017920526
000380 c1 f1 72 bb 78 02 58 3c fc 87 1e 3d 98 2c 0a bd
       -0.0037070366 0.013184182 0.038703904 -0.033733934
000390 c9 8a 47 3d 29 7a 8d bc 78 eb d3 bc 54 f5 30 3d
       0.04871634 -0.017270165 -0.025869116 0.043202713
0003a0 54 81 1d 3d 97 6a d3 bb 2e 0f 11 bd cf 99 24 bd
       0.038453415 -0.0064519155 -0.035414867 -0.040185746
0003b0 b7 62 fb b9 98 cc 13 bd a2 70 30 bd ca 43 1a bd
       -0.00047948 -0.036083788 -0.043076165 -0.037662305
0003c0 6b 95 71 bb 3f 04 1f 3d 2b 5e f8 bc a6 0f 30 3c
       -0.0036862742 0.03882241 -0.03031834 0.010745918
0003d0 c1 8c 31 bd 58 d3 ca bc 46 f4 53 3c 1a 76 d2 bb
       -0.043347124 -0.02475898 0.012936657 -0.00642277
0003e0 32 51 cc bc a3 53 48 bd 29 f7 6b bb 27 64 9b 3c
       -0.02494106 -0.048907887 -0.0036005473 0.018968655
0003f0 8a ba 1d bd 3a 46 5b bb a5 9b c5 bc b0 1e 38 bd
       -0.038507976 -0.0033458606 -0.024122069 -0.04495114

mlp.0.bias f4 [64]
000000 73 a4 a4 bc af 91 96 3c 04 43 41 bc fe ff 35 3c
       -0.020097947 0.018380014 -0.011795763 0.011108397
000010 dd e0 05 bd 68 36 d5 3c 7a e3 40 3d 17 d9 44 3c
       -0.03268515 0.02602692 0.04709194 0.012014649
000020 24 fa 85 bc f6 dd 19 3d 12 38 75 bc f8 d8 54 bc
       -0.016354628 0.037565194 -0.0149669815 -0.0129911825
000030 55 ea 1b bd 49 9c 97 3c 72 ca 46 3d 2d 50 ef bb
       -0.038065273 0.01850714 0.04853291 -0.007303259
000040 f8 fd 8a bc 94 65 40 bd 5c 0c 32 3d 75 df 16 3d
       -0.016966805 -0.046971872 0.043468818 0.0368342
000050 d0 83 f6 3c b5 c9 1a 3d d3 cf 85 bc ee 7a 7b 3c
       0.03009215 0.03779002 -0.01633445 0.015349133
000060 77 3e 8d 3c fb eb 25 3d 23 3c 94 3c c4 47 91 3b
       0.0172417 0.04050825 0.018095082 0.004433604
000070 22 5e 0c bd ea 82 a7 3c f3 b9 58 3b ae 77 ec 3c
       -0.03426946 0.020448167 0.0033069819 0.028865661
000080 20 d4 12 bb dd 53 11 bd 7c 5e 3b 3c 1a a0 7d bc
       -0.0022404268 -0.03548037 0.011436101 -0.015480066
000090 da 28 67 3c d8 06 e6 3a cf 8b 39 bd 56 df d6 3c
       0.014108861 0.0017549647 -0.045299347 0.026229542
0000a0 01 5d 5e 3b 7a 18 d5 bb bc a5 4d bd 33 5b e0 bc
       0.0033929946 -0.006503162 -0.050206885 -0.027387237
0000b0 e8 96 3d bd 25 76 20 bd 5c 1f 19 3d f6 af 43 3d
       -0.046286494 -0.03917517 0.037383422 0.04777523
0000c0 aa aa 2d bd e0 04 36 3d b8 5f cb 3c c0 bf 03 3d
       -0.042399086 0.044438243 0.024825916 0.03216529
0000d0 60 d9 46 bd fe 79 97 3c 71 21 e2 bb de d5 30 3d
       -0.04854715 0.018490788 -0.006900959 0.04317271
0000e0 27 fb 8d ba 28 24 10 3d 25 1d b9 3b f1 df 2c 3b
       -0.0010832296 0.03519073 0.0056492263 0.0026378597
0000f0 ab d6 35 3d aa 45 95 3c 7e 94 b1 3c de a8 83 bc
       0.044394176 0.018221695 0.021677252 -0.016071733

mlp.1.weight f4 [64]
000000 74 fe 7f 3f 74 fe 7f 3f 74 fe 7f 3f 74 fe 7f 3f
       0.9999764 0.9999764 0.9999764 0.9999764
000010 74 fe 7f 3f 74 fe 7f 3f 74 fe 7f 3f 74 fe 7f 3f
       0.9999764 0.9999764 0.9999764 0.9999764
000020 74 fe 7f 3f 74 fe 7f 3f 74 fe 7f 3f 74 fe 7f 3f
       0.9999764 0.9999764 0.9999764 0.9999764
000030 74 fe 7f 3f 74 fe 7f 3f 74 fe 7f 3f 74 fe 7f 3f
       0.9999764 0.9999764 0.9999764 0.9999764
000040 74 fe 7f 3f 74 fe 7f 3f 74 fe 7f 3f 74 fe 7f 3f
       0.9999764 0.9999764 0.9999764 0.9999764
000050 74 fe 7f 3f 74 fe 7f 3f 74 fe 7f 3f 74 fe 7f 3f
       0.9999764 0.9999764 0.9999764 0.9999764
000060 74 fe 7f 3f 74 fe 7f 3f 74 fe 7f 3f 74 fe 7f 3f
       0.9999764 0.9999764 0.9999764 0.9999764
000070 74 fe 7f 3f 74 fe 7f 3f 74 fe 7f 3f 74 fe 7f 3f
       0.9999764 0.9999764 0.9999764 0.9999764
000080 74 fe 7f 3f 74 fe 7f 3f 74 fe 7f 3f 74 fe 7f 3f
       0.9999764 0.9999764 0.9999764 0.9999764
000090 74 fe 7f 3f 74 fe 7f 3f 74 fe 7f 3f 74 fe 7f 3f
       0.9999764 0.9999764 0.9999764 0.9999764
0000a0 74 fe 7f 3f 74 fe 7f 3f 74 fe 7f 3f 74 fe 7f 3f
       0.9999764 0.9999764 0.9999764 0.9999764
0000b0 74 fe 7f 3f 74 fe 7f 3f 74 fe 7f 3f 74 fe 7f 3f
       0.9999764 0.9999764 0.9999764 0.9999764
0000c0 74 fe 7f 3f 74 fe 7f 3f 74 fe 7f 3f 74 fe 7f 3f
       0.9999764 0.9999764 0.9999764 0.9999764
0000d0 74 fe 7f 3f 74 fe 7f 3f 74 fe 7f 3f 74 fe 7f 3f
       0.9999764 0.9999764 0.9999764 0.9999764
0000e0 74 fe 7f 3f 74 fe 7f 3f 74 fe 7f 3f 74 fe 7f 3f
       0.9999764 0.9999764 0.9999764 0.9999764
0000f0 74 fe 7f 3f 74 fe 7f 3f 74 fe 7f 3f 74 fe 7f 3f
       0.9999764 0.9999764 0.9999764 0.9999764

mlp.1.bias f4 [64]
000000 00 00 00 00 00 00 00 00 00 00 00 00 00 00 00 00
       0.0 0.0 0.0 0.0
000010 00 00 00 00 00 00 00 00 00 00 00 00 00 00 00 00
       0.0 0.0 0.0 0.0
000020 00 00 00 00 00 00 00 00 00 00 00 00 00 00 00 00
       0.0 0.0 0.0 0.0
000030 00 00 00 00 00 00 00 00 00 00 00 00 00 00 00 00
       0.0 0.0 0.0 0.0
000040 00 00 00 00 00 00 00 00 00 00 00 00 00 00 00 00
       0.0 0.0 0.0 0.0
000050 00 00 00 00 00 00 00 00 00 00 00 00 00 00 00 00
       0.0 0.0 0.0 0.0
000060 00 00 00 00 00 00 00 00 00 00 00 00 00 00 00 00
       0.0 0.0 0.0 0.0
000070 00 00 00 00 00 00 00 00 00 00 00 00 00 00 00 00
       0.0 0.0 0.0 0.0
000080 00 00 00 00 00 00 00 00 00 00 00 00 00 00 00 00
       0.0 0.0 0.0 0.0
000090 00 00 00 00 00 00 00 00 00 00 00 00 00 00 00 00
       0.0 0.0 0.0 0.0
0000a0 00 00 00 00 00 00 00 00 00 00 00 00 00 00 00 00
       0.0 0.0 0.0 0.0
0000b0 00 00 00 00 00 00 00 00 00 00 00 00 00 00 00 00
       0.0 0.0 0.0 0.0
0000c0 00 00 00 00 00 00 00 00 00 00 00 00 00 00 00 00
       0.0 0.0 0.0 0.0
0000d0 00 00 00 00 00 00 00 00 00 00 00 00 00 00 00 00
       0.0 0.0 0.0 0.0
0000e0 00 00 00 00 00 00 00 00 00 00 00 00 00 00 00 00
       0.0 0.0 0.0 0.0
0000f0 00 00 00 00 00 00 00 00 00 00 00 00 00 00 00 00
       0.0 0.0 0.0 0.0

mlp.1.running_mean f4 [64]
000000 81 51 73 3f 28 4b a1 be 15 4e b3 3d 5e ba e8 bd
       0.9504624 -0.31502652 0.08755127 -0.11363672
000010 be d6 f3 bd d7 11 18 be 05 fb 1d be 0d 86 07 bf
       -0.11906193 -0.14850555 -0.15427788 -0.5293892
000020 23 e0 c9 3c 5c e7 04 3e 7c d8 f3 bc 12 72 db be
       0.02464301 0.12978882 -0.029766314 -0.42860466
000030 c5 1a 9c bd 2e 51 98 be d5 a7 f9 3e e5 77 d4 bd
       -0.076222934 -0.29749435 0.48760858 -0.103744306
000040 35 2b 45 bf f4 fb 9f 3e ea f3 42 bf c7 21 83 3f
       -0.77019054 0.31246912 -0.76153433 1.0244683
000050 e6 f3 02 3f 23 d4 33 3f a6 80 fa be 95 c3 5e be
       0.5115341 0.7024557 -0.48926276 -0.21754296
000060 bc 05 a5 be ec 7d 3e bf e0 09 24 bf 24 6a bd bb
       -0.32230937 -0.7441089 -0.6407757 -0.005780475
000070 e1 19 2b bf 3c 10 df be 7b 95 d6 3e 2a 8e 66 bf
       -0.66836363 -0.43567073 0.4191092 -0.90060675
000080 06 ee f1 3e 71 7a 87 3e 68 85 ed 3e 59 5d ad 3e
       0.4725191 0.26460603 0.46390843 0.3386028
000090 40 2f 2d 3f 51 20 08 be c8 a6 db 3e 7e 7a 20 be
       0.6765022 -0.13293578 0.42900681 -0.15671727
0000a0 a0 fc 88 3e 71 79 84 bf 20 e4 4d 3e b6 b9 27 be
       0.26755238 -1.0349561 0.20106554 -0.16379437
0000b0 e7 41 82 3c 97 f6 4e bf e3 1d 11 3e 3f 79 03 c0
       0.015900565 -0.80845016 0.14171557 -2.0542753
0000c0 bb 52 31 3f 05 02 fd 3e 68 6c a4 3d 42 2c fb 3d
       0.6926686 0.49415603 0.08028489 0.12264301
0000d0 ca 9f 83 3f 71 35 40 3d 56 af aa 3e 98 4f 6a 3f
       1.0283139 0.046925966 0.33336896 0.915277
0000e0 98 6b f7 bd 97 50 26 bf 08 d0 75 be df 4a 1c be
       -0.12081069 -0.6496672 -0.24005139 -0.15262936
0000f0 ff dd 67 bc 06 58 e7 bd 0f 0e a8 be cc d4 b5 be
       -0.014152049 -0.11296086 -0.32823226 -0.35513914

mlp.1.running_var f4 [64]
000000 36 ac 1e 3c 9c 14 3e 3c eb 39 94 3c ec a3 0f 3c
       0.009684613 0.011601593 0.018094024 0.008767109
000010 8f 85 db 3b 61 db 06 3c 16 ad dc 3b 37 c6 8d 3c
       0.006699271 0.008231015 0.0067345006 0.01730643
000020 c8 6e 05 3c a2 f7 2d 3c 31 38 fd 3b d4 67 cf 3b
       0.008144088 0.010618122 0.007727646 0.006329516
000030 cb 66 1c 3c 9a 9e 1a 3c 0d 2c ed 3b 8e fc 00 3c
       0.009545992 0.009437228 0.0072379173 0.007872714
000040 37 18 19 3c c7 be 8d 3c 85 e4 a2 3c 40 ec 1e 3c
       0.009344152 0.017302884 0.019884357 0.009699881
000050 6b 50 6b 3b 76 d6 06 3c 8a 2b 21 3c 9d a4 f6 3b
       0.0035906087 0.008229842 0.009837041 0.0075269477
000060 02 d9 87 3c 36 9c ce 3b 15 5c ef 3b 6f ed f3 3b
       0.01658297 0.006305243 0.007304678 0.007444076
000070 10 2d 1a 3c b8 d1 9d 3c 9c 83 aa 3b 8d 7f d8 3b
       0.009410158 0.01926504 0.0052036773 0.006607002
000080 bf b4 f4 3b f0 cf 34 3c 55 c4 af 3b 8f e2 09 3c
       0.0074678357 0.011035904 0.005363981 0.008415832
000090 a3 65 14 3c 98 04 c4 3b b3 45 03 3c 0e e4 96 3b
       0.009057435 0.005981993 0.008012223 0.004604823
0000a0 77 b0 b4 3b 23 ad 67 3c 67 78 79 3c 2a 79 7d 3c
       0.0055142003 0.0141404 0.01522646 0.015470782
0000b0 27 88 92 3b fa ed f6 3b ee 36 12 3c bd 24 32 3c
       0.004471797 0.0075356932 0.008924229 0.010873017
0000c0 94 4e 41 3c 25 d8 a2 3c 8a e7 dc 3b 86 96 32 3c
       0.01179852 0.019878456 0.006741469 0.010900145
0000d0 31 b6 49 3c 74 d1 20 3c 5a 4b 95 3c b5 fc cc 3b
       0.012311504 0.0098155625 0.018224407 0.006255711
0000e0 24 2d ec 3b 2e d9 b5 3b 07 6b c2 3b 19 99 0f 3c
       0.0072075296 0.0055495715 0.005933169 0.008764529
0000f0 c2 6f a7 3c a4 58 4f 3c 6d c4 a0 3b ca e6 05 3c
       0.020439032 0.012655411 0.0049062283 0.0081727

mlp.4.weight f4 [32, 64]
000000 40 ce 49 3d ea 23 a5 bd 08 37 eb 3d e6 66 f3 bd
       0.04926896 -0.08063491 0.11485106 -0.11884861
000010 a8 ab 4a bc 54 d2 b9 3d 58 41 2e bd 78 21 b6 bd
       -0.012370028 0.0907332 -0.042542785 -0.088931024
000020 48 a6 af bd e8 bf 52 bc 70 6d bf 3c 80 53 be 3c
       -0.085766375 -0.012863137 0.023367614 0.023233175
000030 42 2d f1 bd 28 2a 3a 3d 0e 8a 94 bd c6 d2 ce bd
       -0.1177621 0.04545036 -0.07252894 -0.100987956
000040 c8 e5 98 bd 0c 44 bb 3d f8 e9 0b 3b 84 fe 1a bd
       -0.07465702 0.09143838 0.0021349173 -0.03784038
000050 8e 4b e4 bd b4 94 5d 3c c6 51 9c 3d 74 bc ff bb
       -0.111472234 0.013524223 0.076327845 -0.007804448
000060 f4 af f9 3d 94 5e 76 bd 60 02 98 bc d4 e1 35 3d
       0.121917635 -0.06014879 -0.01855582 0.04440482
000070 30 cd 9d 3d 90 9b 53 bd 94 22 1f bd a2 c9 c2 bd
       0.07705152 -0.051662028 -0.038851336 -0.09511115
000080 7e 72 c3 3d f8 07 1d 3a 98 6a 50 3d 1c a4 d9 3d
       0.09543322 0.0005990262 0.050882906 0.106270045
000090 4c 4f d6 bd a2 dc c5 3d e4 1a 0c 3d 90 9a fb bd
       -0.104643434 0.09661223 0.034205332 -0.1228534
0000a0 54 21 4c 3d 86 87 e9 bd b8 aa 0f bd 7e 68 e7 bd
       0.04983647 -0.11402802 -0.03507492 -0.11299227
0000b0 7c ab 22 3d bc 6a dd 3d 18 aa 23 3c 2c 91 e5 3c
       0.03971432 0.108113736 0.009989284 0.028023325
0000c0 6c d2 d4 3d 44 fc dc bd ec 47 7e bd 44 39 13 3d
       0.10391697 -0.10790303 -0.06208031 0.035943285
0000d0 e4 65 9c 3d 2a e4 f2 3d 74 ca 56 bb a4 74 75 3d
       0.076366216 0.11859925 -0.003277448 0.05992569
0000e0 1c c4 ff 3c 38 ad 90 3d 38 d4 c8 bd 36 63 f1 bd
       0.031221442 0.07064289 -0.098061025 -0.11786501
0000f0 60 83 b0 bd 50 b5 72 3d 32 4d d2 bd 34 9d b0 bd
       -0.08618808 0.059254944 -0.1026863 -0.08623734
000100 4a ec b3 3d 16 e0 9d bd 4a fd a0 bd d0 83 d6 bd
       0.08785303 -0.077087566 -0.07860811 -0.1047436
000110 2e 92 c0 bd d8 38 c9 3d aa 11 94 bd 20 27 db 3d
       -0.094028816 0.09825295 -0.07229932 0.10700822
000120 f8 e9 17 3b a6 65 c9 bd 7a d0 d6 bd 88 86 21 3c
       0.0023180228 -0.09833841 -0.104889825 0.009858735
000130 98 1b 17 bd 10 5e 26 bd d4 24 e1 3b c8 a3 3f bd
       -0.03689155 -0.04061705 0.0068708453 -0.046787053
000140 74 87 78 3c 88 f1 3f bd 82 9c 9e bd 08 2a cb 3c
       0.015169013 -0.0468612 -0.07744695 0.024800315
000150 38 eb e0 3d ca 35 bd 3d 88 dd f3 bd 04 4b e5 3d
       0.109823644 0.09238775 -0.11907488 0.11195949
000160 8c db 51 3d 6e d0 93 3d da 57 cc bd 18 31 4f 3c
       0.051234767 0.07217489 -0.09977694 0.012645982
000170 48 b3 18 3d 6c 59 b2 bd 2e 88 e8 bd 3c de 67 3d
       0.03728035 -0.08708462 -0.11354099 0.056608424
000180 02 09 cc 3d be db 99 bd 88 e7 f7 3d 14 6e e5 3d
       0.099626556 -0.075126156 0.12104708 0.11202636
000190 96 12 ea 3d d8 4e ba bb 42 de d1 3d 44 83 9f 3d
       0.11429326 -0.0056856684 0.102474704 0.07788709
0001a0 14 b2 e6 bd 90 c3 5d 3d f8 c7 49 3a 08 11 03 bd
       -0.112644345 0.05414158 0.0007697339 -0.031998664
0001b0 a0 5a c4 bc 82 8e a6 3d e0 e6 40 3d c0 5a a6 3c
       -0.023968995 0.0813265 0.04709518 0.020306945
0001c0 76 3e cf 3d fc 59 d8 3d d6 dc b8 bd 30 2b 82 3d
       0.10119335 0.10564038 -0.09026496 0.063558936
0001d0 8a 2b ae 3d fc 0c a5 3d 68 3b 9f 3c 04 58 3a bd
       0.08504398 0.08059117 0.019437507 -0.045494094
0001e0 a4 6d 06 3d 98 00 03 bd 04 f5 ec 3c 98 1d 9d bd
       0.032819405 -0.031982988 0.028925426 -0.0767166
0001f0 4e 86 88 bd 30 5c b1 3d 10 be de 3d 2c f1 f0 3c
       -0.066662416 0.086601615 0.10876095 0.029411875
000200 ce 54 f3 bd b8 5f f9 bd 02 fd af bd f0 cf ae bd
       -0.118814096 -0.1217646 -0.08593179 -0.08535755
000210 90 19 56 3d 42 45 c9 3d 4e 40 bc bd 9c 27 49 3d
       0.052270472 0.09827663 -0.09191953 0.04911004
000220 90 ba 85 3c 1c df 3d 3d e0 13 d0 3c 48 6d 12 3d
       0.016324311 0.04635535 0.025400102 0.03574875
000230 1c f4 28 3d 0e db 96 3d f8 0a 07 b9 58 c3 9e bb
       0.041248426 0.07366 -0.0001287869 -0.004845064
000240 78 2c 09 bd c8 47 3e 3c 46 69 db bd b0 4c d1 3c
       -0.033489674 0.011613794 -0.10713439 0.025549263
000250 6c a6 d9 bc ac be e7 bc a4 06 ec bd bc db 46 bd
       -0.026568614 -0.028289162 -0.11524704 -0.0485494
000260 48 9d 0c 3d 0e 12 d3 3d a8 74 c8 3c f8 1b f7 3d
       0.034329683 0.10306178 0.024469689 0.120658815
000270 5c 03 af 3d 1c 06 92 3d c8 56 ae 3c b8 ed c9 3d
       0.085455626 0.071300715 0.021281615 0.098597944
000280 84 6d 64 3c aa 00 a6 bd 74 84 e2 3b 54 c4 3b 3d
       0.013942126 -0.081055954 0.0069127623 0.04584153
000290 42 3f a0 bd be cc 8f 3d 46 15 d3 bd e0 6a cb bd
       -0.078245655 0.07021473 -0.10306792 -0.09932494
0002a0 58 9d f6 bd e4 5a 65 3c 38 e1 93 3c 94 fd ff 3c
       -0.1204173 0.013998721 0.018051729 0.031248845
0002b0 18 fe 18 3d d4 84 dd 3c 9c 16 ec bd 20 19 9b bc
       0.037351698 0.027040876 -0.1152775 -0.018932879
0002c0 1a e2 d3 3d 5c 5a e1 bc 68 ba fb bd 48 06 08 bc
       0.1034586 -0.027508907 -0.122914135 -0.008302279
0002d0 10 98 99 bc 0c 18 79 3d 74 91 dd 3b f8 2e 1c 3c
       -0.018749267 0.06081395 0.006761724 0.009532683
0002e0 4a 62 a6 bd b8 5b 21 3b 48 38 cf 3c 90 0b ce bd
       -0.08124216 0.002462132 0.025295392 -0.10060799
0002f0 18 ec bd bc 28 b2 62 3d 7a 62 c9 3d 90 48 d0 3d
       -0.023183867 0.055345684 0.09833236 0.1017009
000300 00 9d 83 bd 2c 86 0d bd 20 9f 97 3d 78 93 64 3d
       -0.0642643 -0.034551784 0.074033976 0.0558047
000310 0c d9 ea 3c 1c 33 d4 bd c8 1c 10 bd f8 ed 3c bc
       0.02866795 -0.10361311 -0.035183698 -0.011531346
000320 2e 3a e0 3d 5e 8e 97 3d 14 21 43 3d d8 62 0b bc
       0.10948597 0.07400201 0.047638968 -0.008507453
000330 7c c1 37 3d b0 14 17 bd 7a a8 f8 bd ba 48 ac 3d
       0.044862255 -0.036884964 -0.12141509 0.08412309
000340 4c b7 24 bd 9a 81 a8 3d 50 02 df bd 7c 0e e8 bd
       -0.040213868 0.082278445 -0.10889113 -0.11330888
000350 e4 af 75 bc 84 9f 62 bd ae 10 a9 bd 2c 9e e7 3c
       -0.014995549 -0.055327907 -0.082551345 0.028273664
000360 98 c2 a8 3b 68 b4 3c bd 30 78 d0 bd 7e 81 bf bd
       0.0051501505 -0.046070486 -0.10179174 -0.093508705
000370 c8 a6 c6 bd 5e 54 ba 3d 58 5a bf bb 74 e9 ec ba
       -0.0969978 0.09098123 -0.0058396272 -0.0018074946
000380 40 a7 fa bd 80 13 ae bd 74 6e f7 bc 68 c3 04 bc
       -0.12238932 -0.08499813 -0.030204035 -0.008103229
000390 02 a6 97 3d a0 cc 08 3d b4 a6 6d bb 4c 40 b4 3d
       0.0740471 0.03339827 -0.0036262693 0.08801326
0003a0 b8 21 7b bd 00 f7 69 3d ca 32 dd 3d ee a2 a7 3d
       -0.061311454 0.057120323 0.10800703 0.08185373
0003b0 26 cb a8 3d 60 e5 c7 3c a4 e5 5f bc 14 27 43 3d
       0.082418725 0.024401367 -0.01366559 0.04764469
0003c0 76 b4 a1 bd 34 ee cc bd f2 29 bc bd e0 a3 8f bc
       -0.07895748 -0.10006371 -0.09187688 -0.017534196
0003d0 ac 2a ab 3d e6 52 89 3d 68 a7 b5 bc 78 07 37 bd
       0.083577484 0.06705265 -0.022174552 -0.044684857
0003e0 1c af f3 bc 70 b3 cb 3c a4 0e 6a 3c d8 fa ff 3d
       -0.029746585 0.024865836 0.014285717 0.124990165
0003f0 2a b7 a9 3d cc e1 d6 bd 66 43 c6 3d a0 1b 91 3c
       0.08286889 -0.10492286 0.09680824 0.017713368

mlp.4.bias f4 [32]
000000 a0 ff 8b 3c 6c 8d b4 3d b4 2a 70 bd 42 c0 9a 3d
       0.017089665 0.088160366 -0.058634475 0.075562015
000010 a6 c5 f5 bd e4 b1 cb 3d a0 04 ed 3d b0 77 7a bd
       -0.12000589 0.09946039 0.11573148 -0.0611493
000020 28 37 ce 3c f8 1b 4d 3a e4 f4 b3 bd 82 bc ec 3d
       0.025172785 0.0007824297 -0.087869436 0.115593925
000030 44 b5 f6 bd 60 b8 fb 3d 9e 22 bc 3d 82 ca cb 3d
       -0.120462924 0.12291026 0.0918629 0.09950735
000040 c8 fd 52 bc de b7 eb bd e2 af ae bd 70 53 c5 bd
       -0.012877889 -0.11509679 -0.08529641 -0.09635055
000050 38 09 07 3d 3c 4a 38 bd f8 0e a5 bc 26 6d fe 3d
       0.032967776 -0.04499267 -0.02014874 0.12423162
000060 bc 71 03 bd fc 07 19 bd e4 58 23 3d d2 40 e2 bd
       -0.032090887 -0.03736113 0.039879695 -0.1104752
000070 12 8c bf 3d c8 3d 1a bd 0e df c1 bd 52 65 de 3d
       0.09352888 -0.037656575 -0.094663724 0.10859169

mlp.5.weight f4 [32]
000000 74 fe 7f 3f 74 fe 7f 3f 74 fe 7f 3f 74 fe 7f 3f
       0.9999764 0.9999764 0.9999764 0.9999764
000010 74 fe 7f 3f 74 fe 7f 3f 74 fe 7f 3f 74 fe 7f 3f
       0.9999764 0.9999764 0.9999764 0.9999764
000020 74 fe 7f 3f 74 fe 7f 3f 74 fe 7f 3f 74 fe 7f 3f
       0.9999764 0.9999764 0.9999764 0.9999764
000030 74 fe 7f 3f 74 fe 7f 3f 74 fe 7f 3f 74 fe 7f 3f
       0.9999764 0.9999764 0.9999764 0.9999764
000040 74 fe 7f 3f 74 fe 7f 3f 74 fe 7f 3f 74 fe 7f 3f
       0.9999764 0.9999764 0.9999764 0.9999764
000050 74 fe 7f 3f 74 fe 7f 3f 74 fe 7f 3f 74 fe 7f 3f
       0.9999764 0.9999764 0.9999764 0.9999764
000060 74 fe 7f 3f 74 fe 7f 3f 74 fe 7f 3f 74 fe 7f 3f
       0.9999764 0.9999764 0.9999764 0.9999764
000070 74 fe 7f 3f 74 fe 7f 3f 74 fe 7f 3f 74 fe 7f 3f
       0.9999764 0.9999764 0.9999764 0.9999764

mlp.5.bias f4 [32]
000000 00 00 00 00 00 00 00 00 00 00 00 00 00 00 00 00
       0.0 0.0 0.0 0.0
000010 00 00 00 00 00 00 00 00 00 00 00 00 00 00 00 00
       0.0 0.0 0.0 0.0
000020 00 00 00 00 00 00 00 00 00 00 00 00 00 00 00 00
       0.0 0.0 0.0 0.0
000030 00 00 00 00 00 00 00 00 00 00 00 00 00 00 00 00
       0.0 0.0 0.0 0.0
000040 00 00 00 00 00 00 00 00 00 00 00 00 00 00 00 00
       0.0 0.0 0.0 0.0
000050 00 00 00 00 00 00 00 00 00 00 00 00 00 00 00 00
       0.0 0.0 0.0 0.0
000060 00 00 00 00 00 00 00 00 00 00 00 00 00 00 00 00
       0.0 0.0 0.0 0.0
000070 00 00 00 00 00 00 00 00 00 00 00 00 00 00 00 00
       0.0 0.0 0.0 0.0

mlp.5.running_mean f4 [32]
000000 4c cd c8 bd 8e 61 7e 3e 97 0f 95 bd be 92 1a 3d
       -0.09804782 0.24841902 -0.07278364 0.0377376
000010 67 47 c3 bc 30 a9 b7 3d a4 ef 11 3e 90 cf eb bd
       -0.023837758 0.08967817 0.14251572 -0.11514199
000020 4b 11 f8 3d 4d 20 4d 3e 79 5c 51 be 19 40 88 3e
       0.12112673 0.20031853 -0.20445432 0.26611403
000030 3b ef e0 be 87 ae 23 3e a7 54 3e 3d 80 51 cb 3d
       -0.43932518 0.15984546 0.04646745 0.09927654
000040 4f 56 3e be 51 ef 12 3d e7 c6 56 be 2a 4e 41 be
       -0.18587612 0.03587276 -0.20974313 -0.18877473
000050 71 eb ac 3d eb dc 8c 3d 7c 0d 75 3c 9e 06 8b 3d
       0.084433444 0.06878074 0.014956828 0.067883715
000060 54 57 5f be 97 9c ee bd a2 19 98 be 00 49 c7 bd
       -0.21810657 -0.11650961 -0.29707056 -0.097307205
000070 43 79 8b 3e f0 6d 99 3d 77 cf 42 be bb 55 44 3e
       0.27240953 0.07491672 -0.19024454 0.19173329

mlp.5.running_var f4 [32]
000000 53 42 66 3e eb 31 11 3e ef 39 45 3e ae e9 08 3e
       0.22486238 0.14179198 0.19260381 0.13370392
000010 55 87 55 3e 99 ee 1b 3e 2d 05 f5 3d 3d 8b 38 3e
       0.20852406 0.15227737 0.11963878 0.18021865
000020 c9 86 23 3e 59 ec 30 3e cc ed 3e 3e e8 3f 34 3e
       0.15969385 0.1727766 0.186454 0.17602503
000030 45 0e a3 3e 6e 0d 32 3e dd 94 18 3e ba 4d 3b 3e
       0.31846824 0.17387936 0.14900537 0.18291369
000040 a6 27 62 3e 45 13 97 3e d0 c1 0f 3e c0 f1 f0 3d
       0.22085437 0.2950689 0.14038777 0.1176486
000050 5a 83 38 3e 16 13 40 3e 17 e2 1b 3e 14 f6 58 3e
       0.18018857 0.1875728 0.15222965 0.21187621
000060 2d 77 02 3e b1 2c eb 3d 9c fa 57 3e 40 25 09 3e
       0.12740774 0.114831336 0.21091694 0.13393116
000070 e2 dc 0d 3e 39 b5 16 3e ba 4e 07 3e d9 6a 42 3e
       0.13853791 0.14717568 0.13213626 0.18986072

mlp.8.weight f4 [1, 32]
000000 27 b2 23 3e 8b 95 b8 bd 1e 25 ab 3c 45 c7 d9 bd
       0.15985928 -0.09012898 0.020891722 -0.10633711
000010 cf 80 be 3d d1 cc d2 3d c3 de 2d 3e 98 e0 29 be
       0.09301912 0.10292972 0.16979508 -0.16589582
000020 98 6a 23 be 25 f8 01 be 1a 10 ed bc f5 bb 5b bd
       -0.15958631 -0.12692316 -0.028938342 -0.053646047
000030 a7 8d bd bd af 61 8e bd 2c ec ee 3d 0c 8e d0 bd
       -0.09255534 -0.069522254 0.1166614 -0.10183343
000040 8d 3b bf 3d 86 92 68 3d 38 7a aa 3d 3d 8c 41 3d
       0.0933753 0.05678036 0.083240926 0.047252882
000050 d6 bc e2 bd 3f 12 16 3e 89 ab b1 bd 3f 00 ad 3b
       -0.11071174 0.14655398 -0.08675296 0.0052795704
000060 64 c1 26 3d 0d ec db bd 22 2f 47 bd 12 fe 02 be
       0.040711775 -0.107383825 -0.048628934 -0.12792233
000070 4a 43 0e 3e 41 1f 72 3c 13 86 e7 3d 92 57 b2 bc
       0.13892856 0.014777959 0.113048695 -0.021770272
